assets/model.pth (torch, 683773 bytes, 18 tensors)

features.0.weight f4 [6, 1, 5, 5]
0	0x3e0513ac	0.12995785
1	0xbd7113ef	-0.0588569
2	0xbc718654	-0.014741499
3	0xbd2336f7	-0.03984734
4	0x3de0b307	0.10971647
5	0xbc45c083	-0.012069824
6	0x3c4cfdd5	0.01251169
7	0x3e3f5b2a	0.1868712
8	0x3e267090	0.16253877
9	0x3d3f9f59	0.046782825
10	0xbdb6702e	-0.08908115
11	0x3e1d849e	0.1538262
12	0x3c128205	0.008942132
13	0xbd0f7e5e	-0.035032623
14	0x3caa76a9	0.020808535
15	0x3d84247d	0.06452272
16	0xbe01fd4b	-0.1269428
17	0x3df9e633	0.1220211
18	0xbdafdeda	-0.085874274
19	0xbe6c13ff	-0.23054503
20	0x3e2271e4	0.15863758
21	0xbde1929a	-0.1101429
22	0xbdbb20e6	-0.09137134
23	0xbcd5889b	-0.026066115
24	0xbd5ad15d	-0.05342232
25	0xbd310a9a	-0.043223
26	0xbd92578f	-0.07145607
27	0xbd84a108	-0.06476027
28	0xbdce7244	-0.10080388
29	0xbc417113	-0.011806744
30	0xbce83e36	-0.028349977
31	0x3d4e2578	0.0503287
32	0xbda1468d	-0.078747846
33	0xbdec8836	-0.11549418
34	0x3cadd788	0.021220937
35	0xbddd7dce	-0.10815011
36	0x3c0c7b79	0.00857436
37	0xbb0a044b	-0.0021059688
38	0x3d0dadaa	0.034589447
39	0xbd5a654f	-0.05331927
40	0xbd83d489	-0.06437022
41	0xb967d079	-0.00022107539
42	0xbdef963c	-0.11698577
43	0xbcf9370a	-0.030421752
44	0xbe2021bb	-0.15637867
45	0xbe16e0a8	-0.14734137
46	0xbdaf9368	-0.085730374
47	0xbe0c7e99	-0.13720168
48	0xbe033764	-0.12814099
49	0x3d332ee7	0.0437459
50	0x3e14def5	0.14538176
51	0xbdf846c5	-0.12122873
52	0xbd29475b	-0.041327816
53	0x3da0a5d0	0.07844126
54	0xbdf282b1	-0.11841334
55	0xbda773e0	-0.08176398
56	0x3c500fa9	0.012699046
57	0xbd8613d5	-0.065467514
58	0xbd75e39f	-0.06003153
59	0x3debe3b8	0.11518043
60	0x3e0b0073	0.1357439
61	0xbdc41b5c	-0.09575531
62	0xbe00c7c3	-0.12576203
63	0xbdca2f26	-0.09872274
64	0xbdc3e439	-0.095650144
65	0xbd735d15	-0.05941494
66	0x3d6ac99e	0.057321183
67	0xbe1f44fc	-0.15553659
68	0xbc9e8b22	-0.019353453
69	0x3e212b9d	0.15739293
70	0x3c746c3c	0.014918383
71	0xbde9bc3b	-0.11412855
72	0xbded42a1	-0.11584974
73	0x3e33315d	0.174993
74	0x3e052f0a	0.13006225
75	0xbc3b989d	-0.01144996
76	0x3e23ebc2	0.16007903
77	0xbe15879b	-0.1460251
78	0x3dd05853	0.101730965
79	0xbe0ce9d1	-0.13761069
80	0x3dd0831e	0.101812586
81	0x3e2fb195	0.17157586
82	0x3cf8a3c5	0.030351529
83	0x3d742ad9	0.059611175
84	0xbe2f4eed	-0.17119952
85	0xbbc7963a	-0.0060909064
86	0x3e11aa2b	0.1422507
87	0x3e14b321	0.14521457
88	0xbd3f6e81	-0.046736244
89	0xbd578717	-0.052619066
90	0x3d7ab6f3	0.06120963
91	0xbe1c440f	-0.15260337
92	0xbcbe3b30	-0.023221582
93	0xbc85b3be	-0.01632106
94	0x3df583dd	0.119880415
95	0xbe04c4fa	-0.12965766
96	0x3d7a9b6f	0.06118339
97	0x3e185699	0.14876784
98	0x3dc6278d	0.096755125
99	0xbd3a8ac5	-0.045542497
100	0x3da9ef82	0.082976356
101	0xbd2e0972	-0.042489477
102	0xbcae5b62	-0.02128381
103	0xbdd79436	-0.10526316
104	0x3e1a6fd8	0.15081728
105	0xbe1b2c57	-0.15153633
106	0xbe07f4c3	-0.13276963
107	0x3d723b33	0.059138488
108	0x3e157610	0.14595819
109	0xbd4b2094	-0.049591616
110	0xbe28c62e	-0.1648185
111	0xbe1244d3	-0.14284067
112	0x3d3aa6ce	0.045569234
113	0x3e13200f	0.14367698
114	0x3e28e8d6	0.1649507
115	0xbdc9f32c	-0.098608345
116	0xbc7691ca	-0.015049407
117	0xbd83694f	-0.064165704
118	0x3dab9db1	0.083796866
119	0x3e0ef8a8	0.13962042
120	0x3d20fe53	0.039305042
121	0x3c858264	0.016297527
122	0x3d580174	0.05273576
123	0x3e03fa2c	0.12888402
124	0xbdf73fd3	-0.120727204
125	0xbaa6ef46	-0.0012736104
126	0x3d5421cd	0.051790047
127	0xb8b49e40	-8.612545e-05
128	0xbd99bfdf	-0.075073
129	0x3e0a2465	0.13490446
130	0x3dc758f7	0.097337656
131	0x3e328c25	0.17436273
132	0x3e331c86	0.1749135
133	0x3e00d331	0.12580563
134	0x3e118a91	0.14213015
135	0x3dbf0aa9	0.09328205
136	0xbdd89624	-0.10575512
137	0xbda2e866	-0.07954483
138	0xbdecef7a	-0.11569114
139	0x3d837e8b	0.064206205
140	0xbe3500ef	-0.17676137
141	0xbde968e2	-0.11396958
142	0xbba1e7a5	-0.0049409443
143	0xbe013e83	-0.12621503
144	0xbdc7c62b	-0.097545944
145	0xbe16d067	-0.14727937
146	0x3d2eb093	0.042648863
147	0xbdc5ed1d	-0.096643664
148	0xbd2d6924	-0.042336598
149	0x3c8b14e0	0.016977727

features.0.bias f4 [6]
0	0xbe0b8ae4	-0.13627201
1	0xbd2528cd	-0.040322114
2	0x3d91600e	0.07098399
3	0xbd988787	-0.07447725
4	0xbd2705de	-0.04077708
5	0x3cb6331c	0.022241168

features.1.weight f4 [6]
0	0x3f476489	0.7788778
1	0x3f5367ac	0.82580066
2	0x3f4d8645	0.80283004
3	0x3f4446b2	0.7667037
4	0x3f49af71	0.7878333
5	0x3f55b85f	0.8348445

features.1.bias f4 [6]
0	0x3c889baa	0.016675789
1	0x3b675cdc	0.0035303151
2	0xbcffa994	-0.03120879
3	0xbcccdefb	-0.02500867
4	0x3c49b607	0.012311465
5	0xbd4a1ebc	-0.049345717

features.1.running_mean f4 [6]
0	0xbdc8524c	-0.09781322
1	0xbea10ba9	-0.31454208
2	0x3b8bc481	0.0042653685
3	0x3c6e6d7c	0.01455247
4	0xbbfff420	-0.0078110844
5	0x3c254e8e	0.01008953

features.1.running_var f4 [6]
0	0x3cb64237	0.02224837
1	0x3e2f068a	0.17092338
2	0x3cf360ac	0.029709183
3	0x3d0d6684	0.034521595
4	0x3d262b83	0.04056884
5	0x3d1173b2	0.035510726

features.4.weight f4 [16, 6, 5, 5]
0	0x3d8d61bf	0.06903409
1	0xbd1eb101	-0.038743023
2	0x3d29c6d8	0.041449398
3	0xbca2b795	-0.01986293
4	0x3d1e899b	0.03870545
5	0x3c4b6019	0.012413048
6	0xbce3f491	-0.02782658
7	0x3db1ab61	0.08675266
8	0x3d93d5a5	0.07218484
9	0x3da3303e	0.07968186
10	0xbd66a166	-0.056306265
11	0x3c5fabee	0.013651831
12	0xbcd7460c	-0.026278518
13	0xbcf3d20b	-0.029763242
14	0xbd543b88	-0.051814586
15	0xbc3fb349	-0.01170046
16	0xbd14cce1	-0.0363282
17	0xbd231608	-0.039815933
18	0xbc81c55b	-0.015841177
19	0xbcc2cbe8	-0.02377887
20	0x3c5996f4	0.013280619
21	0x3aca3f48	0.0015430236
22	0x3c63d132	0.0139048565
23	0x3d380853	0.044929814
24	0xbd570c96	-0.052502237
25	0x3d6db30c	0.05803208
26	0x3d4504e3	0.048100363
27	0xbd604b3f	-0.05475926
28	0xbd0d3ea7	-0.034483578
29	0xbbefa39b	-0.0073132045
30	0xbc2890f8	-0.0102884695
31	0xbd30507e	-0.043045513
32	0xbd0120ff	-0.03152561
33	0xbb80bce3	-0.003928767
34	0x3bfeaa01	0.007771731
35	0xbd411d96	-0.047147356
36	0xbc4e2164	-0.012581203
37	0xbc839660	-0.016062915
38	0xbcfa0b39	-0.03052293
39	0xbc13e1df	-0.00902602
40	0xbcfc9602	-0.030833248
41	0xbc9d734d	-0.019220019
42	0x3d02fa2d	0.031976867
43	0x3d22b8df	0.039727088
44	0x3d867e6f	0.06567084
45	0x3c27de1e	0.010245828
46	0xbd0bdcd0	-0.03414613
47	0x3d828a76	0.063740656
48	0x3d338e5c	0.043836936
49	0xbcc96601	-0.024584772
50	0xbd200fd4	-0.039077595
51	0xbb8375fc	-0.0040118676
52	0x3d02ccd6	0.031933628
53	0xbc5dde91	-0.0135418335
54	0x3cec79c2	0.028866652
55	0x3d77dcb9	0.060513232
56	0xbc28b8ea	-0.010297993
57	0x3d153b6b	0.03643362
58	0xbca9403a	-0.020660508
59	0xbc6697de	-0.014074294
60	0x3d672ecc	0.056441113
61	0xbcbab3d8	-0.022790834
62	0xbcbe8a08	-0.023259178
63	0xbd4bf522	-0.049794324
64	0x3d8c23c1	0.06842757
65	0xbd1ae37f	-0.037814613
66	0x3d285ca8	0.04110399
67	0xbd0ffd2d	-0.035153557
68	0xbd8ca7e9	-0.06867964
69	0x3c250ba4	0.010073576
70	0xbd0d063e	-0.03442978
71	0x3cfcfc89	0.030882137
72	0x3d37aaa9	0.04484049
73	0x3d2ea6ce	0.042639546
74	0xbd774a79	-0.060373757
75	0x3c06cde8	0.008227803
76	0x3d5e5c37	0.05428716
77	0x3d58f6ac	0.05296962
78	0xbce19f0e	-0.027541663
79	0x3d2d5333	0.042315673
80	0xbd61fbae	-0.05517166
81	0x3c193744	0.009351555
82	0x3d2e9729	0.042624626
83	0x3d4429a9	0.047891293
84	0x3cc606ef	0.024173228
85	0xbc119047	-0.008884496
86	0xbd62ec42	-0.055401094
87	0xbc4ec2f0	-0.012619719
88	0xbcee5c9b	-0.029096892
89	0xbbf513ae	-0.0074791526
90	0xbd8afcd0	-0.067865014
91	0x3c8cdca4	0.017195053
92	0xbc14dfd6	-0.00908657
93	0x3d1c6fed	0.03819268
94	0x3d7361c9	0.059419427
95	0xbd2987ab	-0.04138915
96	0xbcda940c	-0.026681922
97	0x3cf7029d	0.030152613
98	0xbd1079c4	-0.035272375
99	0x3d649de3	0.055814635
100	0x3cfa7555	0.030573526
101	0x3ce36648	0.027758732
102	0x3d3273ae	0.043567352
103	0x3c117859	0.008878791
104	0xbd0f64d9	-0.035008285
105	0xbda1e49d	-0.07904933
106	0xbcba4751	-0.022739084
107	0x3c4a5ffd	0.012351987
108	0xbc8b7d64	-0.017027564
109	0x3d182c4d	0.037151624
110	0xbc95f305	-0.018304357
111	0xbd1550e1	-0.036454085
112	0xbd2be676	-0.04196783
113	0x3bbe45b2	0.005806648
114	0x3c39463b	0.011308248
115	0x3ccef39c	0.025262646
116	0x3cf7e9d1	0.03026286
117	0x3c1a031d	0.009400156
118	0x3d0e3304	0.03471662
119	0x3c1e5fa7	0.00966636
120	0xbd791496	-0.060810648
121	0xbd1edfb6	-0.038787566
122	0xbd0bf350	-0.034167588
123	0xbcaac8f5	-0.020847777
124	0xbd5025f0	-0.05081743
125	0x3d9a115d	0.07522843
126	0x3dcac8fc	0.09901616
127	0xbbdbcc2e	-0.0067076897
128	0x3d2ac5e9	0.041692648
129	0xbd3d50ce	-0.04621964
130	0x3e0c5668	0.13704836
131	0x3c7e3698	0.015515946
132	0x3ce5077a	0.027957667
133	0x3d8a2066	0.06744461
134	0x3d3496d8	0.04408917
135	0x3d65d3da	0.05611024
136	0xbd43df04	-0.047820106
137	0xbcce1f57	-0.025161428
138	0xbd3a3a68	-0.045465857
139	0x3a6ca573	0.00090273394
140	0xbd01654e	-0.031590752
141	0x3d26aadc	0.040690288
142	0xbd4e0c54	-0.050304726
143	0x3c909997	0.017651362
144	0x3d1eecc9	0.038800035
145	0x3d1d9e45	0.038481016
146	0xbd83e003	-0.06439211
147	0x3cf41366	0.029794406
148	0xbba5f9e2	-0.0050651887
149	0xbd040331	-0.032229606
150	0xbb413d9b	-0.0029486183
151	0x3d197b9c	0.0374714
152	0xbcb3ada4	-0.021933384
153	0x3bd4b5d7	0.0064914036
154	0xbd375c23	-0.044765603
155	0xbd969fe2	-0.07354714
156	0x3ce442dc	0.027863912
157	0xba09be60	-0.00052545033
158	0x3c8f2da9	0.017477827
159	0xbaa3e6d4	-0.0012504705
160	0xbced49ef	-0.028965918
161	0x3b8c4fb8	0.004281964
162	0x3ca9b7f0	0.020717591
163	0xbbf173b3	-0.0073685287
164	0xbce3d385	-0.027810821
165	0xbcd6d4b4	-0.026224472
166	0xbcd127c0	-0.02553165
167	0x3b36d5e6	0.002789849
168	0xbc8c13cf	-0.01709929
169	0x3d4bddec	0.049772188
170	0xbd3a26f9	-0.045447323
171	0xbcfaf656	-0.03063504
172	0x3d46fb7d	0.04857968
173	0xbd57ee00	-0.05271721
174	0x3d675580	0.056478024
175	0x3caba11f	0.020950852
176	0xbd4b5672	-0.049642988
177	0xba365b8b	-0.000695639
178	0xbcd6ee3a	-0.026236642
179	0xbd121a08	-0.035669357
180	0x3d3d4ec6	0.046217702
181	0x3c7c6a93	0.015406269
182	0x3d9267bb	0.07148691
183	0x3cdc7d5c	0.026915245
184	0xbcfa9a3d	-0.030591125
185	0x3d337b1a	0.04381857
186	0x3d4e9444	0.050434366
187	0x3d66ab76	0.05631586
188	0xbb3f0a32	-0.0029150364
189	0x3c8e48df	0.017368732
190	0xbc626de0	-0.013820142
191	0xbd18cfac	-0.037307426
192	0x3d6ea5de	0.058263652
193	0xbcba5315	-0.022744695
194	0x3c815ef4	0.015792347
195	0xbc8a0ae9	-0.016850905
196	0x3da86875	0.082230486
197	0xba96d59f	-0.0011507756
198	0x3c303131	0.010753916
199	0x3c29bf92	0.010360615
200	0xbd6b4d9f	-0.057447072
201	0xbd534371	-0.05157799
202	0x3c0160b1	0.007896588
203	0x3cd4d4aa	0.025980312
204	0x3d504148	0.050843507
205	0x3d244b76	0.040111028
206	0xbc96e812	-0.018421207
207	0x3d2685e1	0.04065502
208	0x3d2535f8	0.04033467
209	0x3d796926	0.060891293
210	0xbbf7b647	-0.007559571
211	0xbd7344fd	-0.059391964
212	0x3d0a38ac	0.033745453
213	0xbc2b167f	-0.010442375
214	0xbce7746b	-0.028253755
215	0x3c75c79c	0.015001204
216	0x3cc8efb8	0.02452837
217	0xbc6f4aca	-0.014605233
218	0x3d92d248	0.07169014
219	0x3c3a02ee	0.011353238
220	0xbd3f12c9	-0.046648774
221	0x3d7123d1	0.058872048
222	0xbcb0e16b	-0.021591863
223	0x3d4450e3	0.047928702
224	0x3d9dcba5	0.07704858
225	0xbd158431	-0.03650302
226	0x3bf925a5	0.0076033645
227	0xbd06a910	-0.032876074
228	0xbd359f42	-0.044341333
229	0x3d2023bd	0.039096583
230	0x3ce3c1f5	0.027802447
231	0x3cf31ecd	0.029677773
232	0xbcaad3e5	-0.020852992
233	0x3c165203	0.009174827
234	0x3c822e22	0.015891138
235	0xbb7a2597	-0.0038169378
236	0xbd639145	-0.05555846
237	0x3d017438	0.031604975
238	0x3d3b6592	0.045751162
239	0x3c8efb5f	0.017453847
240	0xbd8af0a8	-0.06784183
241	0xbb1d39a9	-0.0023990667
242	0xbc803634	-0.015650846
243	0x3d81d323	0.06339099
244	0xbc8241c9	-0.01590051
245	0xbb1b93a4	-0.0023739124
246	0xbc2d714a	-0.010586092
247	0xbd65a480	-0.056065083
248	0x3cbf8f6a	0.023383815
249	0x3cbf44bb	0.023348203
250	0x3cdd4898	0.027012154
251	0xbbe08358	-0.006851595
252	0x3cccd955	0.025005976
253	0x3d2bd6cd	0.041952897
254	0xbd12ac78	-0.03580901
255	0xbd071910	-0.032982886

features.4.bias f4 [16]
0	0x3d03f31c	0.03221427
1	0xbc3f0aae	-0.011660261
2	0x3d48fee3	0.049071204
3	0xbd5e003a	-0.054199435
4	0x3c2e71b8	0.01064723
5	0xbc495e8a	-0.012290606
6	0x3c023256	0.007946571
7	0xbba10971	-0.0049144556
8	0xbd2033c4	-0.039111868
9	0xbc51a775	-0.0127962725
10	0xbc31f0f6	-0.010860672
11	0x3d3ea49c	0.046543702
12	0x3d738a91	0.05945832
13	0xbd6f880d	-0.058479358
14	0xbd074bbd	-0.033031214
15	0xbd7f1330	-0.062274158

features.5.weight f4 [16]
0	0x3f7f68f3	0.99769515
1	0x3f63be74	0.88962483
2	0x3f7e5199	0.9934326
3	0x3f661f5a	0.8989159
4	0x3f7f468a	0.9971701
5	0x3f74cd6f	0.95625967
6	0x3f79aada	0.97526324
7	0x3f83937b	1.0279382
8	0x3f8aef56	1.085429
9	0x3f5beae4	0.8590529
10	0x3f6503f7	0.89459175
11	0x3f66e5d0	0.90194416
12	0x3f63419b	0.8877198
13	0x3f87b6f9	1.0602714
14	0x3f6b21fd	0.91848737
15	0x3f82a8a7	1.0207719

features.5.bias f4 [16]
0	0x3d9f7933	0.07786789
1	0x3dbddbec	0.092704624
2	0x3dbd5333	0.092443846
3	0x3e5750a2	0.21026853
4	0x3d8a2081	0.06744481
5	0x3e6a9d05	0.2291146
6	0x3d2eeb05	0.0427046
7	0x3d62515e	0.05525338
8	0x3d8a4e4c	0.06753215
9	0x3d59638f	0.053073462
10	0x3e5fcf24	0.21856362
11	0x3e83386a	0.25628978
12	0x3da09f5f	0.078428976
13	0x3da83802	0.08213808
14	0x3e017587	0.1264249
15	0x3d5d4f82	0.054030903

features.5.running_mean f4 [16]
0	0x3dee6c5f	0.11641764
1	0x3dd1ade4	0.10238245
2	0xbc7b7bca	-0.015349338
3	0xbf097b6f	-0.5370397
4	0x3cb53823	0.022121495
5	0xbe84df1a	-0.25951463
6	0x3de78331	0.1130432
7	0x3ef20018	0.47265697
8	0xbd458869	-0.048225794
9	0xbece4044	-0.40283406
10	0xbe5ce2ca	-0.21570888
11	0xbea36c96	-0.31918782
12	0xbe6955b1	-0.22786595
13	0x3dcc51cd	0.0997654
14	0x3eaaadf6	0.33335847
15	0x3ce5a13d	0.028030986

features.5.running_var f4 [16]
0	0x3e3b7ea8	0.18310034
1	0x3db6145c	0.08890602
2	0x3d8d099a	0.06886597
3	0x3ee5219e	0.4475221
4	0x3e0de4b1	0.1385677
5	0x3e4613a9	0.19343437
6	0x3dd01757	0.10160702
7	0x3e35c877	0.17752253
8	0x3e059cc8	0.13048089
9	0x3e8ee6ce	0.27910465
10	0x3e75c83d	0.24002166
11	0x3eb0903e	0.34485048
12	0x3df2c62b	0.11854204
13	0x3ddb30bd	0.107026555
14	0x3dcadc10	0.09905255
15	0x3de890a7	0.11355715

classifier.0.weight f4 [120, 1296]
0	0xbc4c1aea	-0.012457589
1	0xbbd4bec9	-0.00649247
2	0xbc97e98d	-0.018543983
3	0xbc9c0e5a	-0.019049812
4	0x3ba44935	0.00501361
5	0xbc20e82a	-0.009820977
6	0xbc9e36c5	-0.019313226
7	0x3bb7c147	0.0056077573
8	0xbcb7c3cb	-0.022432229
9	0x3a225f07	0.000619397
10	0xbb2563db	-0.002523652
11	0xbc5096e7	-0.01273129
12	0x3addb094	0.0016913586
13	0xbc17f0c8	-0.009273715
14	0x3c9715dc	0.01844304
15	0x3ca3df82	0.020004038
16	0xbc866872	-0.016407225
17	0x3a19af01	0.00058625644
18	0x3bc134d2	0.0058961893
19	0xbc9c4ba1	-0.019079031
20	0x3b9c0b00	0.0047620535
21	0x3bd25523	0.0064188405
22	0x3cbfb8fb	0.023403635
23	0x3cd1c622	0.025607172
24	0x3c02c632	0.007981824
25	0xbae159a4	-0.0017192853
26	0x3b89eea0	0.0042093545
27	0x3c3178a9	0.01083199
28	0x3bfc1521	0.0076929484
29	0xbc7b5d38	-0.015342049
30	0xbb390bf0	-0.0028235875
31	0x3b46a0cf	0.0030308252
32	0xbc530e49	-0.012881824
33	0xbc8447f9	-0.0161476
34	0x3a931241	0.001122065
35	0xbb616899	-0.003439462
36	0xbc89bf2b	-0.016814789
37	0xbbb8d153	-0.0056401878
38	0xbc69d764	-0.0142725445
39	0x3c2471ab	0.010036866
40	0xbc5adc18	-0.0133581385
41	0xbad72210	-0.001641335
42	0xbca0992f	-0.019604294
43	0xbbcd6360	-0.00626795
44	0x3c8d91d2	0.017281447
45	0xbc22428c	-0.009903561
46	0x3cb660fa	0.022263039
47	0xbc27823f	-0.010223924
48	0x3c9036b6	0.017604213
49	0x3c6c6d06	0.01443029
50	0xbabf6442	-0.0014602023
51	0xbb9e2ded	-0.004827252
52	0xbaf7ee50	-0.0018915627
53	0x3bc0ea47	0.005887303
54	0x3c6cb072	0.014446365
55	0x3b718850	0.003685493
56	0xbc93d3ca	-0.018045325
57	0xbc23bd57	-0.009993873
58	0xbc50b334	-0.012738038
59	0xbbab654f	-0.005230583
60	0x3c4a9c5f	0.012366383
61	0x3ca31db3	0.019911623
62	0x3c86dc0b	0.016462347
63	0x3baa08e8	0.00518905
64	0xbaba6ca1	-0.0014223048
65	0x3acaf2cf	0.001548374
66	0x3c9b9380	0.018991232
67	0xbbb94d50	-0.0056549683
68	0xbba5fe08	-0.0050656833
69	0x3cbebb04	0.023282535
70	0xbc5acb8d	-0.013354194
71	0x3badd6f8	0.0053051673
72	0x3c48bf74	0.012252677
73	0xbca40fbb	-0.020027032
74	0xbc3fc494	-0.011704583
75	0x3bf4f361	0.007475302
76	0xbb12c1f7	-0.0022393444
77	0xbc307d3f	-0.0107720485
78	0x3c82d07b	0.015968552
79	0x3bc338db	0.0059577054
80	0xbc750c99	-0.014956617
81	0x3bef28f8	0.007298585
82	0xbc8743de	-0.016511854
83	0x3c3d74f3	0.011563527
84	0xbc13b339	-0.009014898
85	0x3c86df1c	0.016463809
86	0xbc8fd372	-0.01755688
87	0x3c8f1255	0.017464796
88	0x3c6c594f	0.01442559
89	0xbc3f9e66	-0.01169548
90	0xbcad68bb	-0.021168103
91	0xbca6d8e5	-0.020367095
92	0x3c6cac19	0.014445328
93	0x3cb73399	0.02236347
94	0x3c2ad49f	0.010426669
95	0x3a91de43	0.0011128861
96	0x3bd34c1a	0.006448281
97	0x3c381d6a	0.011237482
98	0x3c47921c	0.012180831
99	0x3c9b75f5	0.018977145
100	0xba72544d	-0.0009244129
101	0x3c1658e8	0.00917647
102	0x3c2fd168	0.010731079
103	0x3c082765	0.008310174
104	0x3a916355	0.0011092225
105	0xbcaa872c	-0.020816408
106	0x37d48d03	2.5338033e-05
107	0x3ca16696	0.019702237
108	0x3c65489b	0.013994361
109	0x3c55b30a	0.0130431745
110	0xbc01677d	-0.007898209
111	0xbc599d4a	-0.01328213
112	0x3ca64200	0.020295143
113	0xbc34436d	-0.011002404
114	0xbc3a2dba	-0.011363441
115	0xbc578092	-0.013153212
116	0xbbe57002	-0.0070018778
117	0xbbaf3889	-0.0053473157
118	0xba647731	-0.00087152707
119	0x3b6d13a4	0.0036175037
120	0x39cefa6e	0.00039477966
121	0x3c8d3794	0.017238416
122	0x3aedd6a6	0.0018145635
123	0xbc9c444a	-0.019075532
124	0xbc62132c	-0.013798516
125	0xbc0cc6c3	-0.00859231
126	0xbc8f5aa3	-0.017499274
127	0xbc50af6f	-0.012737139
128	0x3c2cf51d	0.010556486
129	0x3c895341	0.016763331
130	0x3c9f26b3	0.019427633
131	0xbc168382	-0.009186627
132	0xbc4cbbc8	-0.012495942
133	0xbb7c5f6a	-0.003850902
134	0x3c96d1c7	0.018410577
135	0xbc889495	-0.016672412
136	0xbc9ea73b	-0.019366851
137	0x3b770cd3	0.0037696853
138	0xbba33ec1	-0.004981846
139	0xbc59b616	-0.013288042
140	0x3c692a54	0.014231283
141	0xbc77ffc3	-0.015136662
142	0x3cb573c9	0.022149937
143	0xbca63308	-0.020288005
144	0x3bf193c3	0.007372351
145	0x3c64241e	0.013924627
146	0x3c719559	0.01474508
147	0x3c1bf0a5	0.009517823
148	0xbc9d079e	-0.019168671
149	0x3c857a60	0.016293705
150	0xbb915f00	-0.0044363737
151	0x3c91cc03	0.017797476
152	0x3b6c89a7	0.003609279
153	0xbc4b1c2a	-0.012396852
154	0x3b20e7c6	0.002455221
155	0xbc571e61	-0.0131298015
156	0xbbd21004	-0.0064106006
157	0xbc4f692a	-0.01265935
158	0xbc5f34be	-0.013623415
159	0x3b3666c4	0.002783225
160	0x3c6aa6e2	0.0143220145
161	0x3b568363	0.0032732121
162	0x3c69e03a	0.014274651
163	0x3ca25bb0	0.01981911
164	0xbae2495a	-0.0017264292
165	0xbc18bddb	-0.009322609
166	0xbc1fa830	-0.009744689
167	0xbc6c37af	-0.014417573
168	0xba3bd8f1	-0.00071658107
169	0x3bd76048	0.006572757
170	0xbb889ee5	-0.0041693323
171	0xbc9e7cac	-0.019346558
172	0xbc7b666a	-0.015344242
173	0xbcabf392	-0.020990167
174	0xbc556d01	-0.013026477
175	0x3c4e5130	0.012592599
176	0xbbe03857	-0.0068426537
177	0x3b485feb	0.003057475
178	0xbbe83fa2	-0.0070876637
179	0x3c1bab2b	0.009501259
180	0xbb9e9033	-0.004838967
181	0x3c10231d	0.008797434
182	0xbcb609f4	-0.022221543
183	0x3c9bcabf	0.019017575
184	0xbc4ba6e3	-0.012429926
185	0x3ad88963	0.0016520437
186	0x3bff9b4a	0.0078004943
187	0x3c49b90b	0.012312184
188	0x3b9e0327	0.004822153
189	0xbc937f00	-0.018004894
190	0x3c2d21f6	0.010567179
191	0x3c563c34	0.013075877
192	0xbc83dbd2	-0.01609603
193	0xbc888e38	-0.016669378
194	0xbbd463fb	-0.006481645
195	0x3ca5a8ea	0.020222146
196	0x3c0ea880	0.008707166
197	0x3ca6fd84	0.020384558
198	0xbb68d4df	-0.0035527272
199	0x3c8e4ba3	0.01737005
200	0x3c872f05	0.016501913
201	0x3c55d636	0.01305156
202	0x3bdc5d2b	0.0067249737
203	0xbc4fc1d3	-0.012680489
204	0xbc3084f9	-0.010773891
205	0xbc392e0f	-0.011302485
206	0xbbbd71d3	-0.005781391
207	0xbc456149	-0.01204712
208	0xbc951afd	-0.018201346
209	0x3c601c68	0.013678648
210	0x3c9aeb66	0.018911075
211	0xbc990d3a	-0.018683065
212	0xbbe01ac8	-0.00683913
213	0x3cb7bfb6	0.022430282
214	0x3ad43606	0.0016190417
215	0xbbd3c4e8	-0.006462682
216	0x3c993f19	0.018706845
217	0xbbc94c62	-0.0061431387
218	0x3c0dd773	0.008657324
219	0x3ae75a94	0.0017650896
220	0x3c801616	0.015635531
221	0x3a201b4a	0.0006107582
222	0xbc051ac8	-0.008124061
223	0xbc5efd27	-0.013610161
224	0x3c96d78b	0.018413326
225	0x3c01d778	0.007924907
226	0x3a30b260	0.0006740447
227	0x3b87fd52	0.004150071
228	0xbb2c87c4	-0.002632604
229	0x39e6701b	0.00043952544
230	0xbc585b8b	-0.013205419
231	0xbc0cfb97	-0.008604906
232	0x3c8a4fa3	0.016883677
233	0x3c99a2a0	0.018754303
234	0x3ca83afd	0.02053594
235	0x3c8baabc	0.017049186
236	0xbb5c77d6	-0.0033640764
237	0x3c515d26	0.012778556
238	0x3c8e8798	0.01739864
239	0xbca550cc	-0.020180129
240	0xbc2db779	-0.010602825
241	0xbc70745c	-0.01467618
242	0x3b68b323	0.0035507164
243	0xbc2a9a8a	-0.010412822
244	0xbc979c2e	-0.01850709
245	0x3c80c5ce	0.01571932
246	0x3a30ab14	0.000673936
247	0x3c4b2ba7	0.012400544
248	0x3b1bbf27	0.0023765059
249	0xbc6040c3	-0.013687315
250	0xbb846160	-0.0040399283
251	0x3c12f3e3	0.00896928
252	0xbbd7b3a3	-0.0065826937
253	0xbc131d28	-0.008979119
254	0xbb259e67	-0.0025271417
255	0xbc6da96d	-0.014505726

classifier.0.bias f4 [120]
0	0xbc086a07	-0.00832606
1	0x3b61475e	0.0034374814
2	0xbadf0589	-0.0017015199
3	0xbc577748	-0.013150997
4	0xbc020193	-0.007934946
5	0xbb2f98f0	-0.0026794039
6	0x3c5c3159	0.0134395
7	0x3d0a61e3	0.03378476
8	0x3c63f90b	0.013914357
9	0xbc0feaec	-0.008784037
10	0x3b6f7f55	0.0036544402
11	0x3be70246	0.0070498316
12	0x3c9b0cfb	0.018927088
13	0x3c97e2a3	0.018540686
14	0xbc87fc4b	-0.016599795
15	0xb911af15	-0.000138935
16	0x3c91deb5	0.01780639
17	0x3c568519	0.013093256
18	0x3cc4927b	0.023995629
19	0xbb8d44f4	-0.0043111984
20	0x3c16165d	0.009160605
21	0xbc365f05	-0.011131053
22	0x3ad730c9	0.0016417737
23	0xbb7ab397	-0.0038254017
24	0x3c7c77ba	0.015409404
25	0xbaf144f1	-0.0018407387
26	0x3cda805f	0.02667254
27	0xb7097177	-8.192254e-06
28	0xbc7b3905	-0.015333419
29	0x3c983970	0.018582076
30	0x3c6b97b8	0.014379434
31	0x3ca34f0d	0.019935155
32	0x3be5fee2	0.00701891
33	0xbc8430e4	-0.016136594
34	0x3b17b523	0.0023148737
35	0x3b60b5e5	0.0034288105
36	0x3c6c58c8	0.014425464
37	0xbc2351e4	-0.009968255
38	0x3bd4078e	0.006470627
39	0xbcac27fa	-0.021015156
40	0x3d41a683	0.04727794
41	0x3abec6bf	0.001455508
42	0x3c496af5	0.012293567
43	0xbc7fd2b3	-0.015614199
44	0x3c92718d	0.01787641
45	0xbc5c8a3a	-0.01346069
46	0x3c78acb5	0.015177895
47	0x3ccd0636	0.025027376
48	0x3c2e36bf	0.01063317
49	0x3c128dcd	0.008944941
50	0xbbf6167f	-0.007510006
51	0x3cae238a	0.02125718
52	0xbc57ed2a	-0.013179103
53	0x3b9ea495	0.004841397
54	0xbab835eb	-0.0014054155
55	0x3bd75e0c	0.0065724906
56	0xbc3ee457	-0.01165112
57	0x3cd9bfc5	0.0265807
58	0x3b2cb8aa	0.0026355186
59	0xbc2d793a	-0.010587985
60	0x3bee191e	0.007266178
61	0xbc13c1a5	-0.009018336
62	0x3c04f69b	0.008115436
63	0x3c280e78	0.010257356
64	0x3c830cbc	0.015997283
65	0xbc4e3847	-0.01258666
66	0x3c91411c	0.017731242
67	0xbc894fe2	-0.016761724
68	0x3c2918c3	0.010320845
69	0xbca39e1d	-0.019972855
70	0x3cc0e47f	0.023546455
71	0x3c686db6	0.014186313
72	0xbc206b32	-0.009791182
73	0x3c979d70	0.01850769
74	0x3d1a678c	0.037696406
75	0x3c5c196c	0.013433795
76	0x3c9243a8	0.017854527
77	0xbc723e44	-0.014785353
78	0xbc24c447	-0.010056562
79	0xbc91b79c	-0.017787747
80	0x3bd45c06	0.0064806966
81	0xba0d6639	-0.00053939555
82	0xbaacd1ca	-0.0013185081
83	0xbca7ba02	-0.020474438
84	0x3c6ba41b	0.0143823875
85	0xbc569085	-0.01309598
86	0x3b3e889d	0.0029073127
87	0xbc3ab221	-0.011395008
88	0xbbfb055e	-0.007660552
89	0xbbf9f249	-0.0076277596
90	0x3c76f4ac	0.015072983
91	0xbb812b64	-0.00394194
92	0x3ab7f567	0.0014034928
93	0xbcaf4df7	-0.021399481
94	0x3c297e2f	0.010345026
95	0xbc9e9713	-0.019359147
96	0x3cb9d553	0.022684729
97	0x3ca8eaef	0.020619838
98	0x3b38d56e	0.0028203386
99	0xbcafdaa1	-0.021466555
100	0x3c1eaba6	0.009684479
101	0x3b404f2a	0.002934406
102	0xbc6cc370	-0.014450893
103	0x3c8ef9be	0.01745307
104	0x3c9122d7	0.017716808
105	0x3cc42435	0.023943046
106	0xbbea6d8b	-0.007154172
107	0x3ca9e31a	0.020738173
108	0x3bc5824c	0.0060274955
109	0x3c93a5c9	0.018023388
110	0xbbe7fe69	-0.0070798886
111	0x3d178f3d	0.037001837
112	0x3c33d97c	0.010977145
113	0x3ced3afb	0.028958788
114	0x3b0f55b4	0.0021871151
115	0xbc5c0777	-0.013429514
116	0x3a04d16c	0.00050666067
117	0xbc87778f	-0.016536502
118	0xbbd7228e	-0.0065653985
119	0x3c67d610	0.014150158

classifier.2.weight f4 [84, 120]
0	0xbc188625	-0.009309326
1	0xbb5e1bc3	-0.003389106
2	0x3d85482e	0.06507908
3	0xbd0f3385	-0.034961242
4	0xbd3ac50e	-0.045598082
5	0xbcdb8191	-0.02679518
6	0x3b9456ec	0.0045269635
7	0x3ca4e20c	0.020127319
8	0xbd08f459	-0.033436153
9	0x3d661924	0.05617632
10	0x3c65f20e	0.014034761
11	0x3d72048d	0.05908637
12	0xbcdc871f	-0.0269199
13	0xbc6521af	-0.013985082
14	0xbd8ee58b	-0.069773756
15	0x3d80ab63	0.062826894
16	0x3cfbb8a9	0.030727701
17	0xbc9bc1f6	-0.019013386
18	0xbd814f83	-0.06313994
19	0x3d63f804	0.055656448
20	0xbc4581ce	-0.012054874
21	0x3b6eea5b	0.0036455605
22	0x3d0eb89f	0.034844037
23	0xbd27f27c	-0.041002735
24	0x3d586097	0.05282649
25	0xbd2640c5	-0.040589113
26	0x3ce2768f	0.027644424
27	0x39688bf9	0.00022177388
28	0x3d279afe	0.040919296
29	0xbc8c9198	-0.017159268
30	0xbd2b43ba	-0.041812636
31	0x3cdd07ac	0.026981197
32	0xbcd3e629	-0.025866585
33	0xbc41fb55	-0.011839707
34	0xbd0ccb8b	-0.0343738
35	0xbd346f6f	-0.044051584
36	0x3d1287d9	0.035774086
37	0xbd8afa6b	-0.06786045
38	0x3d0b4288	0.033998996
39	0xbd416946	-0.047219537
40	0x3656d8fd	3.2014789e-06
41	0xbd9448af	-0.07240426
42	0xbd3e2749	-0.046424184
43	0x3d666d30	0.056256473
44	0x3d890f8f	0.06692421
45	0xbc656144	-0.014000241
46	0xbd53628e	-0.05160766
47	0x3ccc9177	0.024971707
48	0xbcebd6e2	-0.028788988
49	0xbd8865b4	-0.06660023
50	0x3a932cdf	0.0011228583
51	0xbd07e3b8	-0.033176154
52	0xbcb35998	-0.021893308
53	0xbcf2bc40	-0.02963078
54	0x3d33576f	0.043784555
55	0xbc271d54	-0.010199863
56	0x3c6d6742	0.014489951
57	0xbd6a7077	-0.05723616
58	0x3d2244cc	0.03961639
59	0x3d678a5a	0.056528427
60	0x3d08c681	0.033392433
61	0x3d3fbbd2	0.04680998
62	0xbd5641db	-0.0523089
63	0xbbb67ee8	-0.0055693276
64	0xbd86aec5	-0.065763034
65	0x3c46a6e5	0.012124752
66	0xbd06535e	-0.03279435
67	0xbcb5fcb6	-0.022215229
68	0xbd16df93	-0.03683431
69	0x3c5f9cb6	0.013648203
70	0xbd22287e	-0.039589398
71	0xbd6c12fc	-0.057635292
72	0x3c1481b6	0.009064129
73	0x3bd2f084	0.006437363
74	0x3d6b8486	0.05749943
75	0xbd7283fa	-0.059207894
76	0xbcfb97f6	-0.030712109
77	0xbd1e1e02	-0.038602836
78	0x3c13d3d4	0.009022672
79	0x3cd1964a	0.025584359
80	0xbcec7516	-0.028864425
81	0x3d6992b3	0.05702467
82	0x3d44a781	0.048011307
83	0x3c458246	0.012054985
84	0xbbeed1d4	-0.007288197
85	0x3d2227c8	0.03958872
86	0xbc3a5062	-0.011371704
87	0xbc733208	-0.014843471
88	0xbd821b37	-0.06352847
89	0x3d8da22a	0.06915696
90	0x3d5eedac	0.05442588
91	0x3ccad878	0.024761423
92	0x3d612faf	0.054977115
93	0xbc2e1115	-0.01062419
94	0x3ce65f83	0.028121715
95	0xbcced5e5	-0.025248477
96	0xbd45f90f	-0.048333224
97	0x3d3ffd17	0.046872225
98	0x3c9907f1	0.018680545
99	0xbd5517f2	-0.05202479
100	0xbd3e2dbf	-0.046430346
101	0xbd635486	-0.05550053
102	0x3c9fbe1e	0.019499835
103	0xbd658074	-0.056030706
104	0x3d5edb71	0.054408494
105	0xbc37e470	-0.011223897
106	0x3ccbfd2d	0.024900997
107	0x3d95800a	0.07299812
108	0xbd0c7dfa	-0.034299828
109	0xbc754d67	-0.014972067
110	0x3d8b86f8	0.068128526
111	0xbd2bd000	-0.04194641
112	0x3d1ebfc0	0.038757086
113	0xbcf88a81	-0.030339481
114	0x3c043164	0.008068416
115	0x3d44f3f0	0.0480842
116	0x3c6d000a	0.014465341
117	0xbd94fe1c	-0.0727503
118	0x3d7c7ce5	0.061642546
119	0xbd588cf8	-0.052868813
120	0x3d545012	0.051834174
121	0x3d9f1b3f	0.07768869
122	0xbd370cd6	-0.044689976
123	0x3ce0435a	0.027375866
124	0x3d0efeb9	0.03491089
125	0x3d1b27ee	0.037879877
126	0x3b969c5b	0.0045962757
127	0xbd9d367b	-0.07676407
128	0x3d1d0cfb	0.038342457
129	0xbd4432dd	-0.04790007
130	0x3e025d7a	0.12730971
131	0x3d5805e7	0.052740004
132	0x3cf7dbc8	0.030256167
133	0xbd06164b	-0.032736104
134	0xbcde655c	-0.027147941
135	0x3d47111d	0.048600305
136	0xbdb8cc58	-0.090233505
137	0xbd71b510	-0.059010565
138	0x3d67ca74	0.05658956
139	0xbd2fbe42	-0.042906053
140	0xbceee43a	-0.029161561
141	0x3d82455c	0.063608855
142	0xbd1dc2c9	-0.03851584
143	0x3ca62261	0.020280065
144	0x3d95668b	0.07294949
145	0xbd376fe9	-0.04478446
146	0xbd3b6598	-0.045751184
147	0xbd28b492	-0.04118783
148	0xbd5629be	-0.052285902
149	0xbd7a0e2d	-0.061048675
150	0x3b5e467a	0.003391652
151	0xbd6922d5	-0.056917984
152	0xbc6d3288	-0.01447738
153	0xbd72570a	-0.05916504
154	0x3cf5e7c4	0.030017741
155	0x3cdd0cab	0.02698358
156	0x3cd1c5d8	0.025607035
157	0x3c852e3f	0.016257403
158	0xbc4d5e87	-0.012534744
159	0xbcd53a80	-0.026028872
160	0xbcc3d911	-0.023907216
161	0xbd357c82	-0.044308193
162	0x3d023b43	0.031794798
163	0xbd8bcce6	-0.06826191
164	0x3d45f512	0.04832942
165	0xbcb247e4	-0.021762796
166	0x3e02a87a	0.12759581
167	0xbda2fbfa	-0.07958217
168	0x3d56c6c7	0.052435663
169	0x3d78c8de	0.060738437
170	0x3dec11ac	0.11526808
171	0xbd2b4450	-0.041813195
172	0x3d82e9a8	0.06392223
173	0x3c4fb400	0.012677193
174	0x3d30f32a	0.04320065
175	0x3d4396c1	0.047751192
176	0x3bd9a513	0.006641993
177	0x3cc277f9	0.023738848
178	0x3d87ddda	0.06634112
179	0xbcaff161	-0.021477403
180	0xbc72658c	-0.0147947185
181	0xbcfc58b6	-0.03080402
182	0x3d261ad8	0.040552944
183	0x3c92af5c	0.017905883
184	0xbd26b8c8	-0.040703565
185	0xbd9eedb5	-0.07760183
186	0xbc3fe15c	-0.011711445
187	0x3dac0944	0.08400205
188	0xbc4168f5	-0.011804809
189	0xbd8700bf	-0.06591939
190	0xbd4da4af	-0.050205883
191	0x3d80dce7	0.06292134
192	0xbdaad7df	-0.083419554
193	0xbcd9a3a6	-0.026567291
194	0x3d02018f	0.031739768
195	0x3b79807f	0.0038070974
196	0xbc026ce3	-0.007960531
197	0xbd7f5018	-0.062332243
198	0xbd0dc22d	-0.03460901
199	0x3d6dabcc	0.058025166
200	0xbd900807	-0.07032781
201	0xbd30f9a3	-0.043206822
202	0x3df03631	0.11729086
203	0x3d09df20	0.033660054
204	0xbd6fe09e	-0.05856382
205	0xbd03e6e5	-0.03220262
206	0xbd2ffe9f	-0.042967435
207	0xbc8b4d27	-0.017004563
208	0xbd979109	-0.0740071
209	0x3d57dbc7	0.05269983
210	0xbd6d92b8	-0.05800125
211	0xbd2bc65e	-0.041937225
212	0x3d0d225e	0.034456603
213	0x3d08f5cf	0.033437546
214	0xbd863847	-0.06553703
215	0x3db62c03	0.08895113
216	0x3d87dea8	0.06634265
217	0x3dd18114	0.10229698
218	0x3d568f42	0.052382715
219	0x3d173909	0.036919627
220	0x3d57c955	0.05268224
221	0x3d210181	0.039308075
222	0xbd0294dc	-0.031880245
223	0x3b20d8a8	0.00245432
224	0x3d967f0c	0.07348451
225	0x3da1cccb	0.07900389
226	0x3d1a9bfb	0.03774641
227	0xbd7fddb1	-0.06246728
228	0xbda24782	-0.07923795
229	0xbd3cd3c6	-0.0461004
230	0xbd561f17	-0.052275743
231	0x3cc6459c	0.024203114
232	0xbdb25ce3	-0.08709123
233	0xbc0d3482	-0.008618476
234	0x3df24df8	0.118312776
235	0x3dce9934	0.10087815
236	0xbce0227c	-0.027360193
237	0xbb4c1157	-0.0031138265
238	0x3d3fee72	0.04685826
239	0x3df8f15c	0.12155411
240	0x3d3bef1c	0.04588233
241	0x3dbb7f0e	0.09155093
242	0xbcad5d80	-0.021162748
243	0x3d8837ea	0.0665129
244	0x3d204bfc	0.039134964
245	0xbd86ce1c	-0.06582281
246	0xbc6d035f	-0.014466136
247	0xbc575ef3	-0.013145196
248	0x3d960e6e	0.07326971
249	0x3bb749a4	0.0055934954
250	0xbd48fe67	-0.049070742
251	0x3d8da1d4	0.06915632
252	0x3b9ad0ea	0.0047246115
253	0xbd307a96	-0.043085657
254	0x3c8ac2a3	0.016938513
255	0x3d6af8c9	0.057366166

classifier.2.bias f4 [84]
0	0xbce14ab2	-0.027501438
1	0x3c80c9bc	0.015721194
2	0x3d01b519	0.03166685
3	0xbc9a7256	-0.018853348
4	0x3d7cb471	0.06169552
5	0x3c87ce23	0.016577786
6	0xbd976c7d	-0.07393739
7	0xbca89696	-0.020579617
8	0xbd84fa8e	-0.06493102
9	0xbc8d71df	-0.017266212
10	0xbc61bdd6	-0.013778171
11	0x3d988574	0.07447329
12	0x3dcd5f10	0.10027897
13	0x3d35ffac	0.04443328
14	0xbd6fa506	-0.058506988
15	0xbc1b932d	-0.009495539
16	0xbd850bb2	-0.06496371
17	0xbd16236d	-0.03665488
18	0x3b795ccd	0.0038049698
19	0x3d1bb1e3	0.038011443
20	0x3d1b897d	0.037972916
21	0x3a5063fb	0.00079494686
22	0x3d4d2e61	0.05009306
23	0xbca322f8	-0.019914135
24	0x3cdf6e92	0.027274404
25	0xbd84a251	-0.06476272
26	0x3cf0c028	0.029388502
27	0xbd8e6bab	-0.0695413
28	0xbc8513a5	-0.016244719
29	0xbce82d74	-0.028341986
30	0xbd5eecf6	-0.054425202
31	0x3d819a48	0.06328255
32	0xbd761a75	-0.060083825
33	0x3b3462da	0.002752474
34	0x3cbe7f0d	0.023253942
35	0x3cdfc651	0.027316244
36	0x3c91db36	0.017804723
37	0x3d7faf16	0.062422834
38	0x3ceca2f8	0.028886303
39	0x3a94a37f	0.001134023
40	0x3db756c9	0.089521
41	0xbce28b56	-0.027654331
42	0x3dda5ad0	0.10661852
43	0x3d1fe309	0.039034877
44	0x3d8bed99	0.068324275
45	0x3d4da88b	0.050209563
46	0x3d84745b	0.064675055
47	0xbd4cae43	-0.049970876
48	0xbca3ba82	-0.019986395
49	0xbb83c261	-0.0040209745
50	0xbd28dd6c	-0.04122679
51	0x3cc463fd	0.02397346
52	0xbc123be2	-0.00892541
53	0x3d3ce77a	0.04611919
54	0x3d66cff7	0.056350674
55	0x3996af23	0.00028740717
56	0xbd40b90d	-0.04705148
57	0x3d6b1145	0.057389516
58	0xbbc53c1a	-0.0060191276
59	0xbd6918d9	-0.056908462
60	0xbc3f90d8	-0.011692248
61	0x3d2490e9	0.04017726
62	0x3d227b1a	0.03966818
63	0xbcec1f27	-0.028823448
64	0x3d7c3d9f	0.061582204
65	0xbd66e311	-0.05636889
66	0xbcbeb050	-0.023277432
67	0x3ce06868	0.027393535
68	0x3ca8b5f6	0.020594578
69	0xbd8c8580	-0.068614006
70	0xbd27d977	-0.040978875
71	0xbd17306f	-0.036911424
72	0x3c80e3f1	0.015733691
73	0xbd75fc44	-0.060055032
74	0x3be5d659	0.0070140776
75	0x3ab5a4ab	0.0013858279
76	0x3cd65806	0.02616502
77	0x3d8bdc83	0.06829169
78	0x3ce91c56	0.028455894
79	0x3d610939	0.054940436
80	0xba8056ff	-0.0009791552
81	0x3d862220	0.065494776
82	0xbc5e8c84	-0.013583306
83	0xbd588c40	-0.052868128

classifier.4.weight f4 [13, 84]
0	0x3d9ecfe6	0.07754497
1	0x3df69a00	0.12041092
2	0xbe135cfd	-0.14390941
3	0xbcf42036	-0.029800516
4	0xbd4ea198	-0.050447077
5	0x3dfefc87	0.124505095
6	0xbde1b5ed	-0.11021028
7	0xbba0c4dc	-0.00490628
8	0xbd52555c	-0.051350936
9	0x3dbc3403	0.09189608
10	0xbd7e447f	-0.06207704
11	0xbe23b89d	-0.15988393
12	0xbdd9227a	-0.10602279
13	0x3d515de1	0.05111492
14	0xbd97b3d3	-0.074073456
15	0xbe080c0d	-0.13285847
16	0xbd0d3990	-0.034478724
17	0xbc463c32	-0.012099313
18	0xbd3fcebe	-0.046828024
19	0xbd71f597	-0.059072103
20	0xbce76e4a	-0.028250832
21	0x3d56096a	0.05225507
22	0x3da3262f	0.07966267
23	0x3e0c36cf	0.13692783
24	0x3d86a086	0.06573586
25	0xbcd94be3	-0.026525443
26	0xbe11881a	-0.14212075
27	0x3c5c7ed9	0.013457977
28	0x3e45f666	0.19332275
29	0x3e458386	0.19288453
30	0xbbf8bc73	-0.0075908243
31	0xbe45961d	-0.19295545
32	0x3e03e75e	0.12881228
33	0xbd83d01c	-0.06436178
34	0x3dbc16a1	0.091840036
35	0x3ce291de	0.027657446
36	0xbd4551f0	-0.048173845
37	0x3d619599	0.055074308
38	0xbcef39ee	-0.029202428
39	0xbe03a413	-0.12855558
40	0x3ae9bc9b	0.0017832698
41	0x3d2831c4	0.041063085
42	0xbdd6cc22	-0.10488154
43	0xbe2f35d4	-0.17110378
44	0xbcf9e50d	-0.030504728
45	0xbcc03668	-0.023463443
46	0xbbf1370f	-0.0073613
47	0x3c10e1dd	0.0088429125
48	0xbd6657cd	-0.056236077
49	0x3dbb38d9	0.09141702
50	0x3ce11307	0.027474893
51	0x3cf9182a	0.03040703
52	0x3db17ead	0.086667396
53	0xbda957dc	-0.08268711
54	0x3e517f17	0.20458637
55	0xbda16b2e	-0.07881771
56	0xbc9e62db	-0.019334247
57	0xbdda9108	-0.10672194
58	0xbc365f24	-0.011131082
59	0xbdb3193e	-0.08745049
60	0xbd0ce0ea	-0.034394182
61	0x3d246c4e	0.04014235
62	0xbac88a24	-0.0015299958
63	0x3dd94bdb	0.106101714
64	0x3e318b3f	0.17338274
65	0xbbb86937	-0.005627777
66	0xbc873e56	-0.016509216
67	0x3da92064	0.08258131
68	0xbdb7187f	-0.08940219
69	0xbc9a8a9b	-0.01886492
70	0xbd570b15	-0.052500803
71	0xbd861276	-0.0654649
72	0xbdb50798	-0.08839339
73	0xbdf41b90	-0.1191932
74	0xbd9381d2	-0.07202496
75	0xbd5116bb	-0.051047068
76	0x3d2f54c7	0.04280546
77	0x3e29153c	0.16512007
78	0xbdb6ea22	-0.08931376
79	0x3d046b87	0.03232911
80	0x3d975ed1	0.07391132
81	0xbdc38ec1	-0.095487125
82	0x3ddcee0d	0.10787592
83	0xbd3e59d3	-0.04647238
84	0x3d359413	0.044330668
85	0xba798eab	-0.00095198554
86	0x3df6cd32	0.12050857
87	0xbd993ea2	-0.074826494
88	0x3cef41ce	0.029206183
89	0xbc832386	-0.01600815
90	0xbda7c7d4	-0.08192411
91	0xbd350931	-0.04419822
92	0x3d990a05	0.07472614
93	0x3d75a650	0.05997306
94	0xbcf33030	-0.029686064
95	0xbd9f1a24	-0.07768658
96	0xbe0e671b	-0.13906519
97	0xbe1074ae	-0.1410701
98	0xbdabbe78	-0.083859384
99	0xbcfc70c3	-0.030815488
100	0xbd0a7a1c	-0.03380786
101	0xbdf0d22c	-0.11758837
102	0x3d54f4c1	0.051991228
103	0xbd958739	-0.07301182
104	0xbd2321f1	-0.03982729
105	0x3bbbe3d5	0.005733947
106	0x3c01caaf	0.007921859
107	0x3d9a15ba	0.07523675
108	0x3d03c99c	0.03217469
109	0x3e02b089	0.12762655
110	0x3cdb5299	0.026772784
111	0x3de68fe7	0.11257916
112	0x3dd34b8a	0.10317142
113	0x3de40532	0.111338034
114	0x3d7b3f3d	0.061339606
115	0x3e0382f2	0.1284292
116	0x3d81fc26	0.063469216
117	0xbc1e3e97	-0.009658477
118	0xbda988aa	-0.0827802
119	0x3de87495	0.11350361
120	0xbd2508f2	-0.040291734
121	0x3dee83ed	0.116462566
122	0xbe211cfc	-0.15733713
123	0xbe09d123	-0.13458686
124	0x3ca32ce9	0.019918876
125	0xbd980273	-0.07422342
126	0xbe120150	-0.14258313
127	0xbbfb6d91	-0.0076729734
128	0x3aee78b7	0.0018193935
129	0xbd865b0e	-0.06560336
130	0xbc7ec367	-0.015549517
131	0xbd110663	-0.03540648
132	0xbda5d325	-0.08096913
133	0xbc9594b0	-0.018259376
134	0xba83f3f0	-0.0010067206
135	0x3de5db6d	0.11223493
136	0xbe28cf68	-0.16485369
137	0xbddf32d4	-0.108983666
138	0x3e3e5515	0.18587144
139	0x3d68de8e	0.05685287
140	0xbc8f66d3	-0.017505085
141	0xbdf37db8	-0.11889213
142	0x3ddf244c	0.10895595
143	0x3df1dcdf	0.11809706
144	0xbdbc9fa3	-0.09210136
145	0xbc305d18	-0.010764383
146	0x3d060434	0.032718852
147	0xbde400d5	-0.11132971
148	0x3dcd1b31	0.10014952
149	0xbdc984c7	-0.098397784
150	0x3bff7032	0.007795357
151	0xbca7b147	-0.020470275
152	0xbd216b15	-0.039408762
153	0xbd50b592	-0.05095441
154	0x3d230c60	0.039806724
155	0xbd2694f0	-0.04066938
156	0x3c90e51a	0.01768737
157	0x3d4e3533	0.050343703
158	0x3cc1104b	0.02356734
159	0x3dd225bd	0.10261104
160	0xbc32db38	-0.010916524
161	0xbbd2dee2	-0.006435261
162	0xbd0194e0	-0.03163612
163	0x3d31a8a0	0.043373704
164	0xbc7e4211	-0.015518681
165	0xbe149e89	-0.14513601
166	0xbc17b42b	-0.009259264
167	0xbd865ede	-0.06561063
168	0xbc3b8e99	-0.011447572
169	0x3e41570e	0.18880865
170	0xbdb5f2d3	-0.08884206
171	0xbc52d98b	-0.012869249
172	0x3d2e908e	0.042618327
173	0xbcf1d1a1	-0.029518904
174	0x3e06109e	0.13092276
175	0xbd51a2a2	-0.05118049
176	0x3e404de7	0.18779717
177	0xbd6b7a2f	-0.05748957
178	0xbd499c9e	-0.049221627
179	0x3ddd79ee	0.10814272
180	0xb9ede050	-0.00045371288
181	0x3e5eb7cf	0.21749805
182	0x3d7b2e3c	0.06132339
183	0x3dab26a4	0.083569795
184	0xbdbed04d	-0.09317074
185	0xbcdf102b	-0.02722939
186	0xbe1ec827	-0.1550604
187	0xbb55f48b	-0.003264698
188	0x3e08e087	0.133669
189	0xbc33b9c7	-0.010969586
190	0xbd2d72ec	-0.042345926
191	0xbc207b3d	-0.009795007
192	0x3cad4e83	0.021155601
193	0xbd3d4e03	-0.046216976
194	0xbd94f7e3	-0.07273843
195	0x3c99f453	0.01879326
196	0xbc39551f	-0.011311798
197	0x3e2aab72	0.16666964
198	0x3d338fa9	0.043838177
199	0xbd094e9c	-0.033522233
200	0xbddd4099	-0.10803337
201	0xbd939611	-0.07206357
202	0x3b50b8de	0.003184847
203	0xbde20aea	-0.11037238
204	0xbe12ed6b	-0.1434838
205	0xbd856bb9	-0.06514687
206	0xbdb55c7f	-0.08855533
207	0xbd1af2b7	-0.037829127
208	0xbd4150b0	-0.04719609
209	0xbd7aca75	-0.061228234
210	0x3d32d3c5	0.04365899
211	0xbdb5583c	-0.0885472
212	0xbddae028	-0.10687286
213	0xbcf5b6c5	-0.029994378
214	0x3d8cfa27	0.0688365
215	0xbcb763ae	-0.022386398
216	0x3a06ff0f	0.0005149701
217	0x3d42d8f4	0.047570184
218	0xbaf92672	-0.001900865
219	0xbe03fdc3	-0.12889771
220	0x3dbd91aa	0.09256299
221	0x3d4f42d6	0.05060085
222	0x3c4fd89c	0.012685921
223	0x3bf87faa	0.007583578
224	0x3d50c905	0.050972957
225	0x3c384169	0.011246064
226	0x3dd7cd84	0.10537246
227	0x3cef2a8f	0.029195098
228	0x3c9b121b	0.018929532
229	0x3cd24a52	0.025670204
230	0xbdbfda5b	-0.0936782
231	0xbd54b001	-0.051925663
232	0x3e13856a	0.14406362
233	0xbd4ac668	-0.04950562
234	0x3db93b17	0.090444736
235	0xbd902ddf	-0.07039999
236	0x3cb04ab8	0.021520004
237	0xbda4ab06	-0.08040433
238	0x3dde3e1d	0.10851691
239	0xbd180652	-0.037115403
240	0xbdb9f7d5	-0.09080473
241	0xbdcc5658	-0.09977406
242	0x3d3254be	0.043537848
243	0xbda892af	-0.08231103
244	0xbd31e61a	-0.043432333
245	0x3d9933c6	0.07480578
246	0x3d959ad6	0.07304923
247	0xbe1c32b3	-0.15253715
248	0x3d17e6d1	0.037085358
249	0xbdeee0ac	-0.116639465
250	0xbd79355d	-0.060841907
251	0x3c1a3a74	0.00941335
252	0x3d044751	0.032294575
253	0x3e016cbb	0.12639134
254	0xbde02b2c	-0.109457344
255	0x3dbd67cb	0.092483126

classifier.4.bias f4 [13]
0	0x3cf13134	0.029442407
1	0x3cb986f5	0.02264736
2	0x3d462434	0.04837437
3	0xbd7c700d	-0.061630297
4	0xbd9c211e	-0.07623504
5	0xbddaa485	-0.10675911
6	0xbd2bcf1c	-0.04194556
7	0x3ce13bae	0.027494278
8	0xbbb88f53	-0.00563232
9	0x3bf5d2fb	0.0075019575
10	0xbda6d4f0	-0.08146083
11	0xbd15233d	-0.03641056
12	0x3e0d5142	0.13800529
