assets/model.onnx (onnx, 680856 bytes, 10 tensors)

classifier.0.weight f4 [120, 1296]
00000000: 6620 213c d94c 8fbc 3199 8dbc 338c b4bc
00000010: 785e 9c3b 7995 a7bb f3d9 433c a854 9ebc
00000020: 3301 f7bc 0889 a63c 946e a4bb 9bcf acbc
00000030: 2b73 813a ff57 94bc d2d0 88bc dd17 703c
00000040: abf5 89bc 2a31 773c f294 b9bb c4b0 a8bb
00000050: e384 503c 79f9 6cbc 582b 71ba abb6 a3bc
00000060: 5a26 a43c dd1b d6bc af1e 85bc d2d6 bdbc
00000070: 44da efbb 7855 ef3c 6160 543c aa1c b83c
00000080: b071 1a3a 0c81 943c 3b37 0fbd 755b bbbc
00000090: 4546 59ba 4f5f 983c b7e9 b53a b004 053c
000000a0: fb00 23bc fae6 8d3c fff0 8f3c dd6e 4ebc
000000b0: c296 bcbc 8ef7 bd3c 694a d53c b93a bfbb
000000c0: 892b b03c f27b 25bc 9a02 5abc 81e2 0a3c
000000d0: 6e51 2e3c 14a5 f1bb 2446 843c d207 57bc
000000e0: cc8a 993c c218 47bb bf93 9d3b 4962 f63b
000000f0: 041f d7bc 655a 713b 4756 c63c d040 d3bc
00000100: 4d94 a53b c7cc 94bc 7794 c83b e8d4 bd3b
00000110: c25c 16ba 552f 68bc 2bb5 14bb 293d cf3c
00000120: 17f3 b23c ac20 983c 42b8 123c 88e8 b63c
00000130: a53d c23c 06d3 453c 9d01 5cbc 4b1c b33c
00000140: 4231 c8bc 32b0 c43b bd20 09bc d7ce d5bc
00000150: 7973 793c 1411 70bc 3b02 9abc 1fde 2a3c
00000160: 0c5e d93c 2d38 85bb 881c c93c 74fd 9b3c
00000170: 503b 623c e021 84bc d1c8 b3bc 8937 d83c
00000180: 23a8 ce3c 4b83 7aba 82a5 f9bb e15a ad3b
00000190: dd17 41bc f04e 12bc f0ae cbbb cc0c 043c
000001a0: ddb6 8bbb ce9d 9cbc c55d 30bc 02c9 bbba
000001b0: 9ce8 bebc 9ad0 24bc b9af 493c 2518 d33c
000001c0: 9a14 a63c 23e1 b53c 8e40 943c a8bc 8abc
000001d0: 2f99 9dbb c419 963c da48 573c 1ced e03b
000001e0: 6b02 ddbc 1f13 943c e14a 8ebc 5fa6 afbc
000001f0: fd40 5e3b 52d3 6abb ae57 8c3a 9d9d 723b
00000200: 23cd 27bb 5b99 143c 5f2e ec3b ab96 10bc
00000210: 584d 9e3c 9fbf 67bc 1f4f d93c b4c8 4b3c
00000220: f239 26bc 6d11 c93b 09b3 833b 3184 ce3b
00000230: ae4e 233c 7428 923c 8e88 363c 4eef a03c
00000240: eeb9 acbb 0bae cdbb f8eb ab3b e459 d2bc
00000250: 476f a73c ad61 e2bc 4c56 a43b bb04 323c
00000260: cf0d c3bb ad5e 19bc 06e0 6d3c 954d d03c
00000270: 5bfb 38bc 49c3 1c3c 112c 8c3c c348 1a3c
00000280: 1441 c33c 8292 783c 6145 6fbc 4ab6 36bc
00000290: 16c0 83bc bc7b 01bc 01f7 b8bc ce4d b2bc
000002a0: 2d83 1bbc 3cce 393c b5a4 c73c d1a0 abbc
000002b0: 9d85 b9bb 9f38 dcbb 7c55 f5bb 8886 5cbb
000002c0: 6e52 bcbc 26fa 85bc 2587 3e3b 13d4 bf3c
000002d0: 0c8d 81ba f47b ad3c 5d10 643c 2bff e23c
000002e0: 45bb 993c 98ca 0e3b a02d 28bb da1d 34bc
000002f0: ba50 9abc d9bc 07bc aa8b 8e3c 81f8 803a
00000300: 63e9 cebb 559c 2dbc 9b89 0e3c 873a 653c
00000310: ef0c 6b3c 95d4 abbc a24f a73c 2c81 88bc
00000320: 075b 5cb9 1ad9 a03c 441d 00bb 4590 913c
00000330: fde5 fc3a ad08 aebc 2db0 2cbc 0bc9 00bd
00000340: dc4b 82ba 52bc 86bc 00de 5a3c 3baa 6dbc
00000350: 7cc2 af3c f8c1 3c3c 2bc0 633a 4626 02bc
00000360: 62a1 1ebc bf2d 753c 8851 dabc ebdc 71bc
00000370: 1a6f c63b 3931 b43c 7ec4 e73b 79bf a7bb
00000380: fea8 783c 721a 7cbc fe31 57bc 72f7 623b
00000390: 863a b93c ceaa 8dbb e143 e9bc f81d 31ba
000003a0: d5d2 0dbb 8cb1 33bc d9d7 0b3c 98c6 a13c
000003b0: ca07 8e3c 2628 3e3c cad4 7b3b c1c2 19bc
000003c0: 5ff4 5abc 267a 903c 2af8 b4bb e73e 90bc
000003d0: 892b 8d3b 2be0 a2bb 98e8 09bb b14c 18bc
000003e0: cfe4 66bc 25f3 abbc 3b3f febb 29bf d6bb
000003f0: 4469 8dbb fd36 6abc cadd c9bc 6203 51bb
0.009834385 -0.017492699 -0.017284961 -0.022039508 0.0047720037 -0.005114254 0.011953819 -0.019327477
-0.030151939 0.020329013 -0.0050180648 -0.021095088 0.0009876242 -0.018108366 -0.016701136 0.014654127
-0.016840776 0.015087405 -0.0056635076 -0.005148025 0.012726995 -0.014463776 -0.0009199879 -0.019984564
0.020037819 -0.026136333 -0.016249983 -0.023173723 -0.0073197205 0.02921556 0.012962432 0.022474606
0.00058915745 0.01812794 -0.03496478 -0.022870759 -0.0008288364 0.018600134 0.0013878857 0.008118793
-0.009948964 0.017322052 0.01757097 -0.012599674 -0.023021106 0.023189332 0.026036458 -0.0058358577
0.021505134 -0.010100352 -0.013306284 0.008476854 0.010639532 -0.007374415 0.016146727 -0.013124423
0.018742941 -0.0030379747 0.0048088725 0.0075190407 -0.026259907 0.003682756 0.024211062 -0.025787741
0.005053079 -0.018164052 0.006121214 0.0057932027 -0.0005735868 -0.014171441 -0.0022690992 0.025297718
0.02184443 0.018570267 0.008955063 0.022327676 0.023711035 0.012074238 -0.013428119 0.021864077
-0.02443755 0.0060024494 -0.008369622 -0.026099605 0.015225285 -0.014652509 -0.018799892 0.010428934
0.026534103 -0.0040655346 0.024549738 0.019041754 0.0138080865 -0.016129434 -0.021946343 0.026393669
0.025226658 -0.00095563073 -0.007618607 0.0052903746 -0.011785475 -0.008929953 -0.0062159225 0.008059692
-0.0042637424 -0.019118216 -0.010764544 -0.0014326873 -0.023304276 -0.0100595 0.012309962 0.025768349
0.020273495 0.02220208 0.018097188 -0.016935661 -0.0048095207 0.018322833 0.013139928 0.006864203
-0.026978692 0.018075524 -0.01736969 -0.021441637 0.0033913248 -0.0035831523 0.0010707283 0.0037020214
-0.0025604449 0.009069766 0.0072076763 -0.008824985 0.01932399 -0.014144807 0.026526986 0.012437988
-0.010145651 0.0061361105 0.0040191454 0.0063023795 0.009967489 0.017841555 0.011140956 0.01964536
-0.005271188 -0.006276851 0.0052466355 -0.025677629 0.020438803 -0.027634466 0.00501517 0.010865386
-0.005952574 -0.009360951 0.014518743 0.025427619 -0.011290397 0.009568044 0.017110856 0.009416762
0.023834743 0.015171649 -0.014603944 -0.01115186 -0.016082805 -0.007903036 -0.022578718 -0.021765616
-0.009491724 0.011340674 0.02437053 -0.020950707 -0.00566168 -0.006720617 -0.007486997 -0.0033649523
-0.022988524 -0.016354632 0.0029072252 0.023416555 -0.0009883954 0.02117727 0.013919917 0.027709564
0.018766055 0.0021788236 -0.002566196 -0.010993445 -0.018837322 -0.008284771 0.017400581 0.0009839685
-0.006314443 -0.0105963545 0.0086998 0.013991005 0.014346345 -0.02097539 0.020423714 -0.016663156
-0.00021014745 0.019634772 -0.0019548694 0.017768988 0.0019294616 -0.021244371 -0.01054005 -0.03144173
-0.0009940821 -0.01644722 0.013358593 -0.014505918 0.021455042 0.011520855 0.0008687998 -0.007943695
-0.009682031 0.01496452 -0.026650205 -0.014762144 0.006055725 0.021996127 0.0070729842 -0.005119261
0.01517701 -0.015387164 -0.013134478 0.0034632352 0.022610914 -0.00432334 -0.02847475 -0.000675648
-0.0021640558 -0.010967623 0.008535349 0.019748017 0.017337698 0.011606252 0.0038426393 -0.009384812
-0.013363927 0.01763637 -0.0055227475 -0.01760812 0.0043081683 -0.0049705706 -0.0021043178 -0.009295628
-0.014092638 -0.020989964 -0.0077590025 -0.00655355 -0.004315527 -0.014295337 -0.02464189 -0.0031892885

classifier.0.bias f4 [120]
00000000: 2519 a13c da0b 773c d536 b13c 99b4 77bc
00000010: 1541 753c 5fcd c73c 6d00 33bc dcf5 a4bb
00000020: 8f9b 393c b195 50bc a697 bebb f378 efb9
00000030: da9b 10bb eff2 d2bc 2a3c 7539 0836 88bc
00000040: 8584 d03c bab8 8d3c ebff 22bc 71d6 903c
00000050: 7e96 75bc aab8 03bc eb4d 9cbc 5fc2 af3c
00000060: db2b 893c 0013 863c 06f3 c93c 8953 f1bb
00000070: f47f 8bbc ef89 9eb9 6834 6c3a 39fd 363b
00000080: 4205 33ba b992 9cba 42e7 c6bc 8f2c a8bc
00000090: 388d 693c d977 6fbc 2d1c 8bbc 435b 8fbb
000000a0: 1c4a 9b3a 4160 bb3b eeb6 913b 1284 98ba
000000b0: 8a90 a4bc 0d96 9e3a d83c b6bc 5d63 91ba
000000c0: c4db bfbc 0e8a 19bb ca92 9e3b 867d 393c
000000d0: f270 ba3c d92b 943c ee05 f0bb fca8 7e3b
000000e0: 06fb 8ebc 475c b8bc 0527 c73c cbcc eb3c
000000f0: aa14 7cbb 7971 0ebb 94ab 783c cffe 933c
00000100: e8b1 3dbc 901c 763c 6682 b8bc f335 ca3c
00000110: 5289 52bb 728e 893c b316 c3bc 8310 b0bc
00000120: 0f41 af3c 861e 763c c4ae d33b 3c04 e53b
00000130: 8518 bc3c eb66 d0bb c3c5 fc3c fb81 80bc
00000140: 2a21 6dbc 12ab c9ba dc21 c73a e29a 8dbc
00000150: 766d 5bbc d0bd 30bc c1f2 19bc da2e f23c
00000160: 8984 873c 030d c43c ecbf c23b f0aa d23c
00000170: a544 003c cfdd b1bc 2c07 30bb f302 28bc
00000180: 3df5 dd3c 918f 2bb8 888c a1bc a610 da3c
00000190: 189e 0fbc 7f0c e53b e5fb 0fbc fa7f cd3c
000001a0: a7b7 293b 0ec3 52bc 71c7 853c a95f 9abc
000001b0: 77ab b9bc 0bd0 c4bc cbb3 6fbc f929 873b
000001c0: 40ab b7bc c37e bd3c eb84 a93c b5b3 2e3c
000001d0: f9a5 37bb 08ba 7abc 9d97 43bc 078b 2f3a
0.01966531 0.015078509 0.021632591 -0.015118741 0.01496913 0.02438992 -0.0109253945 -0.0050341915
0.011328592 -0.012731002 -0.0058164177 -0.00045675747 -0.002206555 -0.025750605 0.00023387434 -0.016627327
0.025453815 0.017299999 -0.009948711 0.017680379 -0.014989493 -0.008039633 -0.019080123 0.021454988
0.016744545 0.016366482 0.024652015 -0.0073646945 -0.017028786 -0.00030238877 0.00090104947 0.0027921929
-0.00068290916 -0.0011945582 -0.024280194 -0.02052906 0.014254861 -0.014615976 -0.016981209 -0.004374893
0.0011847648 0.0057182615 0.0044468557 -0.001163604 -0.020088453 0.0012099162 -0.02224581 -0.0011092235
-0.023420222 -0.0023428234 0.004839276 0.011321431 0.022758935 0.018087314 -0.0073249256 0.0038858047
-0.017453682 -0.022504939 0.024310598 0.028784176 -0.0038464465 -0.0021735115 0.015177626 0.018065838
-0.011578061 0.015021458 -0.022523116 0.024683928 -0.0032125306 0.016791556 -0.023814535 -0.021492248
0.021393327 0.015021926 0.0064600427 0.00698903 0.02296091 -0.006359925 0.030856019 -0.01568698
-0.014473239 -0.0015386066 0.0015192586 -0.017285768 -0.013392797 -0.010787442 -0.009396256 0.029563356
0.01654269 0.023931986 0.005943289 0.025716275 0.007828866 -0.021712212 -0.0026859744 -0.010254609
0.027094478 -4.0903284e-05 -0.01972033 0.026619267 -0.00876572 0.006990015 -0.008788084 0.025085438
0.002589682 -0.0128638875 0.016330453 -0.018844442 -0.022664769 -0.024024984 -0.014630268 0.0041248766
-0.022420526 0.023131734 0.020693263 0.010662963 -0.0028022511 -0.015303142 -0.011938003 0.0006696437

classifier.3.weight f4 [84, 120]
00000000: 03a7 44bd 315d 483d 41a5 aa3d 9167 13bd
00000010: e297 eb3b 6a4a a53d 6cac 1a3d 1c32 1a3d
00000020: 3b3d 1e3d 62de c53c 4e49 8cbd 0d2b 8bbd
00000030: ffce f8bc 7e9a f3bc 5373 27bd dbcb c53c
00000040: f3bf e43c be53 e2bc 5e19 a93d 0ab5 803d
00000050: 33f2 dabc 0418 313d 270f a2bd f3d8 393d
00000060: 2506 03bd 4842 9abc 3763 3ebd 1347 823d
00000070: bbb4 6c3d 7457 a5bd 9a95 56bd b881 49bd
00000080: d188 8a3d 65fb 933d cb32 f03c 0613 bf3c
00000090: ee30 8fbd a3ef 3637 9316 6b3d 543e a2bd
000000a0: 420e 18bd 5854 8bbc 5eab 543d 7380 953d
000000b0: eeae 9cbd 0ecf a63c 83f1 8d3c 3c57 6e3d
000000c0: 54c6 d3bc ff04 a739 c38d 5f3c f151 673c
000000d0: d647 4c3d b8be f93c a28c 6cbd dbba 913d
000000e0: 2ab3 2cbd 95f8 373c de26 903c 762e 4b3d
000000f0: 17f7 b5bc 543b 89bd 0abf e33b 700b a8bd
00000100: 9cca 4bbd 6e07 993d 3e7f e5bc a17e 2c3d
00000110: ccf2 c53c 151d b1bd ee41 2b3d ae4d 89bc
00000120: 847c 8cbd 84d2 62bd b49d d33b 7c74 97bd
00000130: 0e4a 383c 84af f7bc 605e a63d f2e7 83bd
00000140: ad9d 89bc 98ed 1c3d 7278 533d 619b 0e3d
00000150: cc8a be3c bf54 8abd 23bf 5e3d 3cb9 0fbd
00000160: 706c 943d cfa3 88bd ec9c b938 ccd1 9a3c
00000170: 525c d53c 0846 5f3b d181 7b3c 255c 6e3d
00000180: 11fb d2bb 708d 9d3d f517 a73d 942a 3ebc
00000190: 9346 3a3d d4eb e83a 2277 82bc a313 b9bc
000001a0: 0beb 68bd dd0d 253d 0304 0dbd 8c12 4b39
000001b0: e5bb 12bd c943 953d fde5 2dbd c7ef b93c
000001c0: d9e3 053d 1382 71bd afcc 8c3d 75ea fb3c
000001d0: 998a d93c 3a62 a73d 9fa2 ebbc ecec 363d
000001e0: 1b9a 983d 561c 6e3a 9b79 c33d 4917 28bc
000001f0: b857 993d 2da4 d33b 48a1 73bd 328e b4bc
00000200: f69a b0bd c0e2 c63d 3fcb 33bd e6e3 9cbd
00000210: 5401 4fbc ea08 53bd 34a9 943c 1cb8 223d
00000220: 5093 2abd de1e 873a 4f4f 9cbc e577 f93c
00000230: aa72 aebc 9421 5d3d 0404 9a3d 4fc4 e03c
00000240: 72f1 0abc 9189 28bc 0915 2e3c 01a1 e1bc
00000250: cfed f63c e0d2 4dbd 60e5 3bbd d670 aebc
00000260: cb45 693c ffbe 093d 5904 943d 89ae fe3c
00000270: cede 20bd 2574 533c d6fa cd3c 27aa bbbd
00000280: 6347 9e3d 9fb2 debd 1ebb 773d eb3a 88bd
00000290: 1e17 143d f059 a0bd 67a9 c53d 4622 893d
000002a0: 2cbf 26bb 919f 91bd 865b 97bd 3feb 14bb
000002b0: 75e3 c33d 6e6a b7bc 32fd 99bd 7509 00bc
000002c0: 7b47 903d 310b 473d 7c00 a1bd b8b8 2c3d
000002d0: 5066 98bd d01d 84bc 73eb 493d ef8d 183d
000002e0: a069 86bd 4c5c 24bd d2cd 9dbd 4458 45bc
000002f0: f850 863d 5ebe d0bb 486f 6cbd 14f2 6fbd
00000300: adfe 453d 3927 6a3c acf4 b53d a6f6 2fbd
00000310: 73a6 9cbd 2102 963d 08d2 28bc 213d d4bc
00000320: 89b1 77bc 7c33 483d 7258 963c 0422 053d
00000330: 432e 2b3c 39b5 b63d 9c2a 393d 007b 74bc
00000340: d751 91bd 67e3 1dbc c635 523d 6a82 a23c
00000350: e47c c0bb 7ef0 ac3d e4e9 9b3d fb31 463c
00000360: 3cbd 3ebd f644 2cbd 94a5 0dbd 7dad fdbc
00000370: 781f 6c3d 9abf 93bd bfc2 96b9 72d4 a5bd
00000380: 1082 19bc cb84 863d f414 a7bc 1ffd 9dbd
00000390: c7f8 bcbd 7b2e 8a3c 8dd6 643d 8d3f 5fbd
000003a0: 8436 473d f83f 533d 4b58 dcbc 67bb cf3c
000003b0: ff5f 3fbd 5ef6 99bc a70b 67bd 18ee a43d
000003c0: ba40 54bc 5a47 b73c 1326 8cbd efbd 90bc
000003d0: b920 283d 4308 893d cdd6 843c 60db 323d
000003e0: 423d 98bd a61e fbbb db6b 2c3d ec30 29bd
000003f0: 7489 8ebd a1cc a03d 6e3c 82bd e609 94bc
-0.048010837 0.048917 0.08332301 -0.03598744 0.0071897367 0.08070834 0.03776209 0.037645444
0.038632613 0.024153892 -0.06849919 -0.06795321 -0.03037214 -0.029736754 -0.040881466 0.024145057
0.02792356 -0.027627822 0.082567915 0.062845305 -0.026726818 0.043235794 -0.07913046 0.045372915
-0.03198828 -0.018830433 -0.046481337 0.063612126 0.057789546 -0.08073321 -0.052388765 -0.049195975
0.06764377 0.07225684 0.029321095 0.0233245 -0.069917545 1.090384e-05 0.057394575 -0.079220444
-0.037122972 -0.017007992 0.05192124 0.0729989 -0.07650553 0.020362403 0.017327076 0.058188662
-0.025851406 0.00031856445 0.0136446385 0.014118657 0.049873196 0.03048645 -0.057751305 0.07115718
-0.04216305 0.0112287 0.017596658 0.049604855 -0.022212548 -0.06700769 0.006950264 -0.082053065
-0.04975377 0.0747212 -0.028014775 0.04211295 0.024163626 -0.08648125 0.041810922 -0.016760673
-0.06859687 -0.055376545 0.0064580087 -0.073952645 0.011248125 -0.03023506 0.08123469 -0.064407244
-0.016798818 0.038312525 0.051628537 0.03481615 0.023259543 -0.06754445 0.0543815 -0.035088763
0.07247245 -0.06671869 8.8507164e-05 0.018898867 0.026044998 0.0034068841 0.015350775 0.058193345
-0.006438621 0.07692993 0.08158866 -0.011606831 0.04547746 0.0017770478 -0.015925948 -0.022592371
-0.05686478 0.040296424 -0.034427654 0.00019366498 -0.03582372 0.072883196 -0.042455662 0.022697343
0.032687996 -0.05896194 0.06874978 0.030751446 0.026555346 0.08173032 -0.028764067 0.04465954
0.07451268 0.0009083202 0.09544679 -0.010259458 0.07487434 0.0064587803 -0.05947998 -0.02204046
-0.086233065 0.09711218 -0.043895002 -0.07660656 -0.012634594 -0.051522173 0.018147089 0.03972636
-0.041644394 0.0010308882 -0.019080786 0.030452678 -0.02129491 0.0539871 0.07520297 0.027437357
-0.008480417 -0.010286705 0.010625132 -0.027542593 0.030142693 -0.050249934 -0.045873046 -0.021294039
0.014237831 0.033629414 0.07227392 0.031089084 -0.039274983 0.012906109 0.025144022 -0.09163313
0.0772846 -0.10873913 0.060481183 -0.06651863 0.03615486 -0.07829654 0.096514516 0.0669599
-0.0025443537 -0.07110513 -0.073905036 -0.0022723225 0.09564868 -0.022389617 -0.07518996 -0.007814755
0.07044884 0.048594657 -0.078614205 0.04216835 -0.074413896 -0.016127497 0.049296807 0.037244733
-0.06563115 -0.040127084 -0.07705273 -0.01204497 0.06558412 -0.00637035 -0.057723314 -0.058580473
0.04833858 0.014291578 0.08884558 -0.04295983 -0.07648935 0.07324625 -0.010303982 -0.025908055
-0.015118011 0.048877224 0.01835272 0.032503143 0.010448041 0.08921284 0.04520665 -0.014921904
-0.07095688 -0.0096367365 0.051320814 0.019837577 -0.005874263 0.08444308 0.076129705 0.012096877
-0.046567187 -0.042057954 -0.034581736 -0.030966515 0.0576472 -0.072142795 -0.00028755327 -0.08097161
-0.009369388 0.06568297 -0.020395733 -0.07714295 -0.09227138 0.016867867 0.055868674 -0.054503966
0.048635975 0.051574677 -0.02689757 0.025357915 -0.04672241 -0.018794235 -0.056407597 0.08053225
-0.012954885 0.02237289 -0.068431996 -0.017668692 0.04104683 0.06691029 0.016215706 0.043666244
-0.07433559 -0.0076635657 0.042095046 -0.04130642 -0.06959811 0.0785153 -0.06359182 -0.018071126

classifier.3.bias f4 [84]
00000000: 0b9f 963d cc5d 45bc 8560 0a3d 6f61 03bd
00000010: 9e91 98bd 69b9 813d e6d4 07bd e11c 65bd
00000020: 95c4 7a3d cead 013d c50c edbc da2f 3e3c
00000030: 2de5 3d3d be27 763d 3769 47bd 825c ef3c
00000040: f537 5fbd 0684 493d 1590 97bd 0a48 2ebd
00000050: 060b 90bd abca ff3c 1b60 193c 8832 813d
00000060: 4a49 06bd e45f 89bd fd76 0dbd 3bda 8bbd
00000070: 127b 6dbb 5aef 61bd 0a2d 1fbd 7512 53bc
00000080: 6aa5 35bd 252b 0a3d b348 1dbc 720b 85bc
00000090: 4350 043d a5b6 22bd a039 f73b ed5b a0bd
000000a0: a626 2e3d 3b87 9e3d bfd0 3dbd 77b6 823d
000000b0: 4403 25bb 7dca 08bd ebfd 1a3d 05a6 86bc
000000c0: c16b 3f3d 1e36 983c db43 ac3d a1c7 a03c
000000d0: d210 873b d7f7 a63d df6d 1d3d 178f 38bd
000000e0: ce82 473b aad4 d9bc 4663 80bc 282a ae3d
000000f0: 929c cd3d ea12 8f3d 9d11 4dbd ed56 633c
00000100: a3fa b63d 2907 b7bc a3c0 f3bc d49a 173d
00000110: 86f4 92bd 71f9 713d 2d53 8f3d d498 d33d
00000120: 59e1 87bc 67f8 843d 59f4 1ebc 5cc2 aa3b
00000130: 1e97 24bb c201 cdbc acb3 80bb 0b2d 9cbd
00000140: 029b 01bd 086e 873d 7e38 63bd bc9d 903d
0.07354554 -0.012046289 0.033783454 -0.03207534 -0.07449649 0.06334192 -0.03316202 -0.055935744
0.06122263 0.031659894 -0.028936753 0.011608088 0.046361137 0.060096495 -0.048684325 0.029218916
-0.054496724 0.049198173 -0.07400528 -0.04254917 -0.070333526 0.03122457 0.009361292 0.06308466
-0.032784738 -0.06707743 -0.034537304 -0.068287335 -0.0036236686 -0.055159904 -0.038861312 -0.0128828185
-0.044347204 0.033732552 -0.009599852 -0.01624081 0.032303106 -0.039724965 0.007544711 -0.078300335
0.042517327 0.07740637 -0.046341654 0.06382459 -0.0025178948 -0.033396233 0.03783981 -0.016436586
0.04673362 0.018580493 0.0841138 0.01962644 0.004121878 0.081527404 0.03843486 -0.045058336
0.0030442956 -0.026590664 -0.015672337 0.085041344 0.10039629 0.069860294 -0.050065625 0.013875705
0.08934524 -0.022342281 -0.029754942 0.03701289 -0.071755454 0.059075776 0.069982864 0.10331884
-0.016586946 0.064926915 -0.009701812 0.0052111577 -0.0025114487 -0.025025252 -0.0039276686 -0.07625779
-0.031641968 0.06612784 -0.055473797 0.070613354

classifier.6.weight f4 [13, 84]
00000000: 2843 c93c 07ac aabb 3586 5e3d fa6b c6bc
00000010: 6dc4 193d 6f20 21be 039a 83bd ec17 553e
00000020: c299 15be 4c2e 303d 2e0c 87bd 2b87 1d3e
00000030: a5ba a0bd a8e4 113c ef0f cc3d 0d0c 4abd
00000040: 2dd6 203d a35a d03b 2a24 1c3e 4505 0b3d
00000050: 44b8 c7bd 4ebe 86bd a3e1 0d3e c176 6dbd
00000060: 6409 af3d 0e56 a2bd 68d5 d2bd a1f2 89bd
00000070: 4562 0d3d b6cc 02be ab68 1dbe 5b9b 24be
00000080: 52b9 debd 531f 73bd f99d 3cbd 2c28 e13d
00000090: 6924 5f3c e09c d9bc 5471 3abd a31a 613d
000000a0: 65cf eb3d 2992 c83b 672f 1d3e 6e2e 573e
000000b0: 72f2 c1bd 5d9e fcbd 60a1 883d 7e85 90bd
000000c0: 222c 6fbc 6c8e 223d 9e67 0dbe 4fe9 a6bd
000000d0: 324b d0bd 2c88 983d b6a7 13bd f472 0ebe
000000e0: e2b5 863d dd2d 32bc ed3a 05be f65b 883d
000000f0: 8e67 d53d c197 42bd b91a 4c3d 0e1d bf3d
00000100: ef7c 4c3e 914c 8e3d 7231 99bd 1b8d 713d
00000110: 503c e5bd 34ac f1bd 9110 76bd 7ff9 243e
00000120: 87ea 23bd fd71 073c 9aac 3c3b 74b2 963d
00000130: f434 7a3c 390e 38bc 6b2a 483e 96e0 8fbc
00000140: 62a3 b4bb afde b83d eef8 c13d 9a06 0c3d
00000150: b6ac 0fbd f3f1 063b 3aa9 c13d 6a2a 843c
00000160: 6c80 e0bd 6fca cebd 6f21 4f3c faf8 00be
00000170: d72d a5bd 565e 593c c306 e0bd 6e13 943c
00000180: 8687 45bc 775e 803d fab3 06be d508 d0bc
00000190: 4121 3f3c aad2 c63d 57ef eb3d 8ca0 343e
000001a0: b24d dabd ae73 8d3c c939 d03d 9578 0d3e
000001b0: ea7b 083e b341 0cbb 2932 d03d 08ce 763c
000001c0: 5354 febb 6f5c aa3b 8ed4 cfbc e7a2 f73d
000001d0: 07cf 3bbd 8285 1cbd 6af9 ffbd 6b31 b2bd
000001e0: e594 0ebd f870 b4bc 9d9a 66bd a9cc 95bd
000001f0: 323a 663c 6885 2a3d 5bdd 873d be01 9ebd
00000200: 7a09 21bd d53d 2b3e 234e 0c3e 2929 d9bd
00000210: 6220 89bc b3c7 dd3d e1b0 56bd 8bcc c4bd
00000220: f015 94bc a694 39bd 3d09 883d ae68 f5bd
00000230: bc92 9b3d 1cf6 aabd c313 7b3d dadf 4abd
00000240: 12c7 383e eb5c a33c 988c b53d 71b2 b4bd
00000250: 64a8 81bd 0f45 833d 7e65 023e 35ac dcbd
00000260: 12a2 15be 61fa e73c 2c43 15be c9f2 403d
00000270: 4c98 8d3d 4a0e 143e 660c 8e3c 1c6b 303d
00000280: 28cd 393e 47be eebd e122 bcbd 9da2 87bc
00000290: d526 d43d d9d4 a53c 8ee4 053d 7206 bf3d
000002a0: 1ffd 7b3d 7734 6f3a a9aa 013a dc11 c03d
000002b0: 3712 4dbd a1a8 043d 6a84 f7bc 5cbb c2bd
000002c0: 3326 463d 9f4f a2bd a920 0ebe 0015 b23c
000002d0: 498d 75bd 3ac9 0fbd 9c89 90bd 8088 cd3d
000002e0: 0cae be3d ac89 d23d 7433 e8bd 2847 223d
000002f0: e5fe d7bd 2f29 10be 82e3 bdbd d0d4 383d
00000300: 53dd 2a3e 8aea f83c b02d a23d d50f 073c
00000310: 3be4 d33d 5d69 c2bd e494 033e 268f ecbd
00000320: 300a 3dbd f103 b23d 6713 3bbd 1cd4 243d
00000330: 45c4 29bd 11a3 c9bc e705 c13d 89ca 97bd
00000340: e27f 12be cfd8 2cbd 819e 5f3d 9f79 033e
00000350: 96bd 9bbd 29ed 87bc 2479 1e3e bc1b b03d
00000360: c5cf dabc 1505 16be f422 283d 2c16 ff3d
00000370: 2fbb f7bd 2c74 debc 96f0 1cbe 9595 403d
00000380: 4612 df3d c9cb c43d 5c64 b23d 230c 023c
00000390: 5f6e 903d e51e 85bd 1b6c cbbc 2c04 9c3d
000003a0: 576e ac3d 323e c3bd 50f6 d13d 46bd 473e
000003b0: 7f99 ab3c 8df2 3e3d 1c20 c1bd 3442 c23d
000003c0: 5942 3abd fa5f dfbd bdf2 083e d064 c0bd
000003d0: b94d 603c 5793 11be 0b72 08be 24a6 23be
000003e0: d713 61bd befb 8a3d 32ec 733d b0f4 833b
000003f0: 230a 9e3d 2812 acbd 05b3 02bc e0a3 11be
0.024568155 -0.0052084955 0.05432721 -0.02422141 0.03754084 -0.15735029 -0.0642586 0.20809907
-0.14609435 0.043012902 -0.0659412 0.15383594 -0.078480996 0.008904614 0.099639766 -0.0493279
0.039266754 0.006358461 0.1524817 0.033940572 -0.09751943 -0.065792665 0.13855605 -0.05797458
0.08546713 -0.0792657 -0.1029461 -0.06735731 0.034517545 -0.12773404 -0.15371959 -0.16074888
-0.10875191 -0.059356045 -0.046049092 0.1099399 0.013619521 -0.026564062 -0.045518234 0.054957043
0.11514167 0.0061209393 0.15350114 0.21013805 -0.09470071 -0.12334893 0.06671405 -0.070567116
-0.014597924 0.039686605 -0.13809058 -0.08149969 -0.10170592 0.07447848 -0.036048613 -0.13911039
0.0657766 -0.0108751925 -0.1301076 0.06658165 0.10420142 -0.047508005 0.049830172 0.093317136
0.19969533 0.06948198 -0.07480134 0.05897246 -0.11193144 -0.11800423 -0.060074393 0.161108
-0.040018585 0.008266923 0.0028789402 0.07358256 0.015271414 -0.01123386 0.19547431 -0.017563146
-0.005512641 0.090268485 0.09471308 0.034185983 -0.03507682 0.002059099 0.094561055 0.016133506
-0.109619945 -0.10097205 0.0126422485 -0.12594977 -0.08065384 0.01326712 -0.1093879 0.018075671
-0.012056237 0.06268018 -0.13154593 -0.025394836 0.011665643 0.0970815 0.1152026 0.17639369
-0.106593505 0.017267074 0.10167272 0.1381553 0.1332852 -0.0021401464 0.10165817 0.01506377
-0.007761517 0.005199007 -0.025369909 0.12091618 -0.045851734 -0.03821326 -0.12498744 -0.08700832
-0.034809966 -0.022026524 -0.056299794 -0.073144265 0.014051961 0.041631132 0.06634017 -0.07715176
-0.03931568 0.16722806 0.13701682 -0.10603554 -0.016739074 0.10829105 -0.05241478 -0.09609326
-0.018076867 -0.045307778 0.06642387 -0.11982857 0.07596347 -0.08347723 0.061298143 -0.049529888
0.1804469 0.019941768 0.08864707 -0.088230975 -0.06330946 0.06409656 0.12734029 -0.107750334
-0.14612606 0.028317632 -0.14576405 0.047106538 0.06913814 0.14458576 0.017339896 0.043070897
0.18144667 -0.11657386 -0.0918634 -0.016557032 0.10358969 0.020243095 0.03268867 0.09327401
0.061520692 0.00091249443 0.000494639 0.093784064 -0.0500662 0.03238738 -0.030214507 -0.09508392
0.048376273 -0.07925343 -0.13879646 0.02173853 -0.059949193 -0.035104014 -0.07057497 0.10035801
0.093105406 0.10280165 -0.11337939 0.03961864 -0.10546664 -0.1407821 -0.09271909 0.04512483
0.16685991 0.030385274 0.079188704 0.008243521 0.10346266 -0.09492753 0.12849766 -0.11550741
-0.046152294 0.08692158 -0.0456728 0.040241346 -0.041446943 -0.024613889 0.09424954 -0.074116774
-0.14306596 -0.042198952 0.05459452 0.12839364 -0.0760452 -0.016592579 0.15475899 0.0859904
-0.0267104 -0.14650376 0.04104896 0.12455401 -0.12096249 -0.027155004 -0.15326151 0.047017653
0.10892157 0.096091814 0.08710548 0.007937464 0.070523016 -0.06500033 -0.024831822 0.07617983
0.08419483 -0.09533347 0.102520585 0.19505796 0.020947216 0.046618033 -0.094299525 0.094852835
-0.04547343 -0.10906978 0.13373847 -0.093942285 0.0136904055 -0.14216362 -0.13324754 -0.15981346
-0.05495056 0.06786297 0.059551425 0.0040269718 0.07716777 -0.084019005 -0.007977252 -0.1422267

classifier.6.bias f4 [13]
00000000: cc51 723d 1897 4ebd 3cd6 963d b3f1 5e3d
00000010: 6a45 a13c 03fe 89bd 698c cebc 8b33 e33d
00000020: 0285 29bd 7734 57bc 7075 d4bd d05a 793b
00000030: 5882 0c3d
0.05916004 -0.050437063 0.07365081 0.05442972 0.01968642 -0.06737902 -0.025213437 0.110938154
-0.04138661 -0.013135067 -0.10373962 0.0038048513 0.034303993

onnx::Conv_45 f4 [6, 1, 5, 5]
00000000: dfcc 343d c7b9 0abf d7c3 69bf eca9 173f
00000010: f8fd ef3e a22b afbe d9b9 483e c884 043d
00000020: 0f53 32bf 0157 e1be f536 09bf 2016 163f
00000030: d34c 5ebf ada9 61bf 6b77 00bf 23af 973e
00000040: 0fa4 1c3f b4af a13e 4685 493e 9e46 aebe
00000050: 6e52 cb3c f50d e7bd c041 753f 37ca 6f3f
00000060: 25b5 b83d 3c4b 0bbe fa63 c53e 0abd 7dbe
00000070: 80e4 90be 62c5 873e 4b23 fabc 0276 afbe
00000080: 9e0e 1ebf 225a db3e 59e0 84bd 9c5c 35be
00000090: 64d4 3bbe 27ed 573e b3a8 183e e291 9b3e
000000a0: bcc4 ee3e 4bb8 913e afad 173e 7e72 fb3e
000000b0: caef 82bd b220 273f 7c1d a73e 6998 b6bd
000000c0: 451d d73d 7907 143e 0b55 9abe aef9 87bd
000000d0: 7449 803e ed82 a4be b23c a7be 89c3 0c3e
000000e0: b783 53be e8b6 3b3e 9f93 dbbd 343e 58bc
000000f0: a422 11be 2a28 2ebd 3a74 d2bd 6658 9d3e
00000100: bfb8 bcbe 24e0 bebe c2ad 02bf 020b 033f
00000110: 6b29 dabe 6f5e cbbe 99d5 163f 66b6 da3e
00000120: 970b 0ebf 251b f6be 8441 883d d413 e53d
00000130: 33f5 c8be 8b59 58be 67cd aebd 868c 9e3e
00000140: 2c67 0cbf c342 103e 0f97 b83e 1d13 adbd
00000150: e5bc 22bf bd74 4e3d cb6c 03bf e2ef a53e
00000160: e2e8 2fbf 2415 24bf 8f22 3dbf c837 bf3e
00000170: 9c6a e83d 36ea 06bf 6350 cbbe 1a37 853c
00000180: ede4 1fbe f1ab 223f db5d 323f 184f 203f
00000190: f0fe 36be 9ed0 2d3f d345 de3e 9115 1abf
000001a0: 22d8 28be e628 7f3e 7d2a b93e 7cd9 683f
000001b0: 19a5 1abe 355d f33d 4515 ab3d b0af f5bc
000001c0: 40e9 373f e2ca 473d 903b c43e ee36 63be
000001d0: f8d0 05bf 920b 1cbf b1cd ea3e 4edf 8b3e
000001e0: 89f9 0dbf 5840 6a3d e021 96be 4324 0abf
000001f0: a903 413f 4221 273d 6fcd a63e 1649 8b3d
00000200: b203 6e3e 8a41 0e3f 17de 89be d7bb 0fbf
00000210: 2e7a cc3e bee1 b2be b4f6 0dbf c1db 05bf
00000220: 7a0d 1abf 2098 8d3e cda8 0fbf e15d c33e
00000230: 1f9a e43e 2766 a83e da14 a1bc 463c 17be
00000240: 0bc0 d2be 5159 4fbd 4ac5 a8be ebbb cebe
00000250: 45a8 8b3e ec91 30bf
0.044140693 -0.54189724 -0.9131445 0.59243655 0.4687345 -0.34212977 0.19602145 0.032353193
-0.6965799 -0.4401169 -0.5359948 0.5862751 -0.86835974 -0.8814953 -0.5018222 0.29625806
0.61187834 0.31579363 0.19679746 -0.34038252 0.024819579 -0.11281959 0.9580345 0.9366793
0.090189256 -0.13602918 0.3855284 -0.24779144 -0.28299332 0.2651778 -0.030534407 -0.3426972
-0.61741054 0.42842203 -0.064881034 -0.17711109 -0.1834274 0.2108656 0.14908104 0.30384737
0.4663447 0.28460917 0.14812349 0.49110788 -0.063933924 0.65284264 0.32639682 -0.08915789
0.105036296 0.14455976 -0.30143008 -0.066394195 0.2505604 -0.32131138 -0.32663494 0.13746466
-0.20655714 0.18331492 -0.10721516 -0.013198424 -0.1417337 -0.042518772 -0.10276075 0.30731505
-0.368597 -0.3728038 -0.51046383 0.5118867 -0.42609724 -0.39720485 0.58919674 0.42717284
-0.55486435 -0.48067585 0.06653121 0.111854225 -0.39249572 -0.21127908 -0.08535271 0.30966586
-0.5484493 0.14087968 0.3605275 -0.08450911 -0.6356948 0.0504043 -0.5133788 0.3240958
-0.68714726 -0.6409476 -0.7388086 0.37347245 0.11348459 -0.5270113 -0.39709768 0.016261626
-0.15614672 0.6354361 0.6967446 0.6262069 -0.17870688 0.6789645 0.43412647 -0.6018916
-0.16488698 0.24917945 0.36165228 0.90956855 -0.15102042 0.11883012 0.08353666 -0.029991
0.71840286 0.04877747 0.38326693 -0.22188923 -0.52271986 -0.60955155 0.45860055 0.27318805
-0.55458885 0.05719027 -0.2932272 -0.5396158 0.7539621 0.0408032 0.32578608 0.068010494
0.23243597 0.55568755 -0.26927254 -0.56145996 0.39936966 -0.34937853 -0.55454564 -0.5228844
-0.60176814 0.27655125 -0.56116945 0.3815756 0.44648835 0.32890436 -0.019663263 -0.14769086
-0.41162142 -0.05062229 -0.3296302 -0.40377745 0.27276817 -0.6897266

onnx::Conv_46 f4 [6]
00000000: 0e11 923e e650 39bf 528f 433f bed7 233f
00000010: 652c 13bf acc0 353f
0.28528637 -0.72389066 0.76390564 0.6400107 -0.57489616 0.7099712

onnx::Conv_48 f4 [16, 6, 5, 5]
00000000: a395 3a3c f6d8 3e3d 9ae5 fbbd 38f7 9abe
00000010: 3d88 24be b7b8 e7bd 47c8 4fbe 1e5a 18bc
00000020: 8693 a9bc 5783 99bc c4ca 7b3d 3f32 2cbe
00000030: 730e 413e aa7a 0abe 5617 eebc 3b84 023e
00000040: fd45 ef3d d73f 46be a6f6 a33d fbae 023e
00000050: dfc2 a7bc 055e 87bd d939 9abe 08ad 83bd
00000060: 73f5 f3bd e209 98bc 503b 01be 60f3 0c3e
00000070: dad7 96bd 014c 903d 8388 453c bd2c 8e3d
00000080: e0a6 be3d 9f3f 993e 6558 3b3e d946 94be
00000090: 81b0 923c 3a90 3e3e 8013 07be b16e 483e
000000a0: 2130 c83d 7d48 7d3e 489e ad3e 6ff9 013d
000000b0: 9e51 133e eb04 283e 71b8 d63d 7673 84bd
000000c0: 2101 8a3c 93c1 09be 68d7 5dbe 3412 42bb
000000d0: 6e45 203e c84e f6ba 1c49 07be 3fe8 703e
000000e0: d8eb 1f3e 9a28 c53d db86 5ebe 39fe 57be
000000f0: 27a3 05be ce21 12be a49a 8e3d a4ae 313d
00000100: 68c8 adbd 532d 4f3e e7e7 5dbd 5359 2e3e
00000110: 6bf6 4bbe e58e 843d c278 33be 8705 423c
00000120: 8747 f0bd fdd5 c23d 46af 1abe 5654 4fbd
00000130: 169b 22be e814 593e a04f 9d3c 5a72 563d
00000140: b0f1 533d 3cfa 23be ec63 f9bd 36ff 6d3e
00000150: 5e35 c8bd a78a 503e c539 8b3e ef1e a3bd
00000160: e6d5 d3bd c7e7 4b3d e535 6b3e fc79 d2bd
00000170: e124 6e3d 2921 26be d039 cfbc 99da 0f3d
00000180: fad6 09be 3d2a 2e3d 3ec5 673d 8eb2 a93d
00000190: 330b 8fbe 0637 1bbe a5e3 573d f82b b4bd
000001a0: 4bc3 e63c 11a6 e13c e331 fe3d 2f7a 23be
000001b0: aee0 4abe 7ecd 273e 1aee 063d a6ec 2f3d
000001c0: eb60 d4bd 790f 9dbc 46b2 3abd edde adbd
000001d0: f6cd 6abe 0e04 0dbd 3554 563d 4bcc 4bbe
000001e0: 6b78 243e a778 d83d 01c9 db3d 0a04 0dbe
000001f0: bd70 30bd 79be 84bc 2167 b8bd 40b4 b7bc
00000200: 6492 13be 7d03 00bd e46b 2bbd b935 32be
00000210: 7b8b c5bd d348 57bd d3ed 97bd f11a 263e
00000220: 2906 45be 5ae9 0e3e bdd1 b5bd abdc f8bd
00000230: c1e8 b23d 2c0f f33c 71c1 113e 0073 3c3e
00000240: 9c02 df3d 10a8 47bd 7598 67be ddfb b3bc
00000250: 63c8 7b3d 59f8 903d 20a3 703e daec 5f3e
00000260: e938 363e f015 363e 390f 26be aa85 7a3d
00000270: af34 973d f1ca b53d 1d04 243e 6700 223e
00000280: ef21 053e fd32 ecbd 1bf1 93be c640 be3d
00000290: 4817 543e 8749 3c3e 56ad 54bc 8698 343e
000002a0: a02a ac3b 8d3a 423e 37a1 38be 95f9 753a
000002b0: e22b 2a3e 856c eabb 7a44 d8bd 974b 253e
000002c0: 68c7 72bd 1051 1fbe 6b1c bb3d 8c51 b8bc
000002d0: 5174 03be f0c3 e0bc c067 883d b670 e43c
000002e0: dfdb 54bd c675 553e 1ec7 bd3d 7060 693e
000002f0: b794 aebd 7e3b 6dbe 208c 54be 1c8e 633e
00000300: e526 d5bd bc71 4b3e 20aa ddbd 306d 42be
00000310: 305b 96bd 5966 103e 3de3 9f3c 0656 42be
00000320: c70d adbc ccc4 44bd bcf4 123e e26c e73d
00000330: 650f 953e 406d 3c3e 9f39 e73d 3ad1 1abe
00000340: abd8 4dbe dbaa 233e 1ab9 ecbb 723e 11bd
00000350: a510 703b 4344 373d 4c7d e03d 175b 703d
00000360: 3182 423d 10b8 98bd 91c7 713e aeff 233e
00000370: bd30 eebd 3d4f 81be af6a 063d 3fb2 8d3d
00000380: d01b 18be cc79 933d 7948 9a3c caf4 e8bd
00000390: 2c62 0fbe 4741 ad3c f118 113e d25b dfbd
000003a0: d309 dcbd 303d dc3d c88c 0a3e 82f9 983d
000003b0: 0ac9 463e 8f45 34bd 3e23 5ebe d02f 53be
000003c0: e892 673e 103c 773e 724c 423e 7f5d 6fbe
000003d0: f245 44be 0d91 0f3e 4ed8 e63c c72b 893e
000003e0: b386 303e 18cc 183d 12b4 a3bc ba18 c13d
000003f0: c2d5 6d3c 8293 be3d 77d6 c33d ca34 0cbe
0.011388215 0.04659363 -0.122996524 -0.30266738 -0.16067596 -0.113145284 -0.20291243 -0.009298829
-0.020700227 -0.018739386 0.06147267 -0.16816042 0.18853168 -0.13523355 -0.029063862 0.12745754
0.11683271 -0.1936029 0.08006029 0.12762062 -0.020478664 -0.0660973 -0.3012226 -0.064294875
-0.1191205 -0.0185594 -0.12620282 0.13764715 -0.07365389 0.070457466 0.012056473 0.06942127
0.09309173 0.29931352 0.18295439 -0.28960302 0.01790643 0.18609706 -0.13191032 0.19573475
0.09774805 0.24734683 0.33909822 0.03173202 0.14386603 0.16408126 0.10484398 -0.06467335
0.016846241 -0.13452749 -0.21664202 -0.00296129 0.15651485 -0.0018791789 -0.13211483 0.23526095
0.15617311 0.09626885 -0.21731131 -0.21093072 -0.13050519 -0.14270708 0.06963089 0.04337944
-0.0848549 0.20232134 -0.054176237 0.17026262 -0.1991822 0.064725675 -0.17526534 0.011842138
-0.11732393 0.09513471 -0.15105924 -0.05061754 -0.15879473 0.21199381 0.019203007 0.052355148
0.051744163 -0.16013426 -0.12177262 0.23241886 -0.09775804 0.20365392 0.27192512 -0.079648845
-0.10343532 0.049781587 0.22969778 -0.10277173 0.05814064 -0.16223587 -0.025296122 0.03512058
-0.13460913 0.04252075 0.05658459 0.0828601 -0.27938232 -0.15157709 0.052707333 -0.08797449
0.028169295 0.027545007 0.12411859 -0.15964578 -0.19812271 0.16386983 0.032941915 0.042950295
-0.10370048 -0.019172417 -0.04558017 -0.08489785 -0.2293013 -0.034427695 0.0523264 -0.1990215
0.16061561 0.105698876 0.10731698 -0.13771072 -0.043076266 -0.016204106 -0.09004045 -0.022424817
-0.14411312 -0.031253327 -0.04185094 -0.17403306 -0.096457444 -0.052559685 -0.07418408 0.16221215
-0.19240631 0.13956204 -0.08877895 -0.12151464 0.087358005 0.02967032 0.14233948 0.18403244
0.108891696 -0.04874426 -0.22616751 -0.021970684 0.0614704 0.070786186 0.23499727 0.21867695
0.17795147 0.17781806 -0.16216744 0.06116263 0.073830955 0.088765986 0.16017194 0.15820466
0.13001226 -0.11533163 -0.28894886 0.09289698 0.20712006 0.18387423 -0.01298078 0.17636308
0.0052541047 0.18967648 -0.18030249 0.0009383199 0.16618302 -0.00715405 -0.10559936 0.16142116
-0.0592722 -0.15558267 0.0913628 -0.022499822 -0.1283734 -0.02743718 0.06660414 0.027885776
-0.051967498 0.20845708 0.09266494 0.22790694 -0.08524459 -0.23167226 -0.20756578 0.22222179
-0.10407809 0.19867605 -0.108234644 -0.18986964 -0.073416114 0.14101543 0.019517535 -0.18978128
-0.021124734 -0.048039243 0.14351171 0.113000646 0.29113308 0.1840105 0.11290287 -0.15118876
-0.20102184 0.15983145 -0.0072242143 -0.035459943 0.0036631015 0.044742834 0.109613985 0.05868062
0.04748744 -0.07456982 0.23611285 0.16015503 -0.1163039 -0.25255767 0.032816585 0.06918763
-0.1485436 0.07200965 0.018833386 -0.11374815 -0.14002293 0.02114929 0.1416967 -0.10906185
-0.10744061 0.10753858 0.13530266 0.07469465 0.19412628 -0.04401165 -0.21693131 -0.20623708
0.22614634 0.24144006 0.18974474 -0.2337551 -0.19167307 0.14020176 0.028179314 0.26791212
0.17238884 0.037304014 -0.019983325 0.09428544 0.014516296 0.09305479 0.0956239 -0.13692012

onnx::Conv_49 f4 [16]
00000000: 6347 193f 81f6 a2bf cd8f 483f f628 2b3f
00000010: 929e f2be 99e2 8cbf 4a17 a3bf 49ad 5e3e
00000020: 8860 8ebe 22a5 1abd b2fd b7be a037 96bf
00000030: 2d9c 7b3f 5ea4 c93e 7064 d7bf 99fc 64bf
0.5987455 -1.2731477 0.7834442 0.66859376 -0.47386605 -1.1006652 -1.2741482 0.2174579
-0.27808022 -0.03775514 -0.35935742 -1.1735725 0.9828518 0.39383215 -1.6827526 -0.89447933
