assets/model.onnx (onnx, 680856 bytes, 10 tensors)

classifier.0.weight f4 [120, 1296]
000000 ea 1a 4c bc c9 be d4 bb 8d e9 97 bc 5a 0e 9c bc
       -0.012457589 -0.00649247 -0.018543983 -0.019049812
000010 35 49 a4 3b 2a e8 20 bc c5 36 9e bc 47 c1 b7 3b
       0.00501361 -0.009820977 -0.019313226 0.0056077573
000020 cb c3 b7 bc 07 5f 22 3a db 63 25 bb e7 96 50 bc
       -0.022432229 0.000619397 -0.002523652 -0.01273129
000030 94 b0 dd 3a c8 f0 17 bc dc 15 97 3c 82 df a3 3c
       0.0016913586 -0.009273715 0.01844304 0.020004038
000040 72 68 86 bc 01 af 19 3a d2 34 c1 3b a1 4b 9c bc
       -0.016407225 0.00058625644 0.0058961893 -0.019079031
000050 00 0b 9c 3b 23 55 d2 3b fb b8 bf 3c 22 c6 d1 3c
       0.0047620535 0.0064188405 0.023403635 0.025607172
000060 32 c6 02 3c a4 59 e1 ba a0 ee 89 3b a9 78 31 3c
       0.007981824 -0.0017192853 0.0042093545 0.01083199
000070 21 15 fc 3b 38 5d 7b bc f0 0b 39 bb cf a0 46 3b
       0.0076929484 -0.015342049 -0.0028235875 0.0030308252
000080 49 0e 53 bc f9 47 84 bc 41 12 93 3a 99 68 61 bb
       -0.012881824 -0.0161476 0.001122065 -0.003439462
000090 2b bf 89 bc 53 d1 b8 bb 64 d7 69 bc ab 71 24 3c
       -0.016814789 -0.0056401878 -0.0142725445 0.010036866
0000a0 18 dc 5a bc 10 22 d7 ba 2f 99 a0 bc 60 63 cd bb
       -0.0133581385 -0.001641335 -0.019604294 -0.00626795
0000b0 d2 91 8d 3c 8c 42 22 bc fa 60 b6 3c 3f 82 27 bc
       0.017281447 -0.009903561 0.022263039 -0.010223924
0000c0 b6 36 90 3c 06 6d 6c 3c 42 64 bf ba ed 2d 9e bb
       0.017604213 0.01443029 -0.0014602023 -0.004827252
0000d0 50 ee f7 ba 47 ea c0 3b 72 b0 6c 3c 50 88 71 3b
       -0.0018915627 0.005887303 0.014446365 0.003685493
0000e0 ca d3 93 bc 57 bd 23 bc 34 b3 50 bc 4f 65 ab bb
       -0.018045325 -0.009993873 -0.012738038 -0.005230583
0000f0 5f 9c 4a 3c b3 1d a3 3c 0b dc 86 3c e8 08 aa 3b
       0.012366383 0.019911623 0.016462347 0.00518905
000100 a1 6c ba ba cf f2 ca 3a 80 93 9b 3c 50 4d b9 bb
       -0.0014223048 0.001548374 0.018991232 -0.0056549683
000110 08 fe a5 bb 04 bb be 3c 8d cb 5a bc f8 d6 ad 3b
       -0.0050656833 0.023282535 -0.013354194 0.0053051673
000120 74 bf 48 3c bb 0f a4 bc 94 c4 3f bc 61 f3 f4 3b
       0.012252677 -0.020027032 -0.011704583 0.007475302
000130 f7 c1 12 bb 3f 7d 30 bc 7b d0 82 3c db 38 c3 3b
       -0.0022393444 -0.0107720485 0.015968552 0.0059577054
000140 99 0c 75 bc f8 28 ef 3b de 43 87 bc f3 74 3d 3c
       -0.014956617 0.007298585 -0.016511854 0.011563527
000150 39 b3 13 bc 1c df 86 3c 72 d3 8f bc 55 12 8f 3c
       -0.009014898 0.016463809 -0.01755688 0.017464796
000160 4f 59 6c 3c 66 9e 3f bc bb 68 ad bc e5 d8 a6 bc
       0.01442559 -0.01169548 -0.021168103 -0.020367095
000170 19 ac 6c 3c 99 33 b7 3c 9f d4 2a 3c 43 de 91 3a
       0.014445328 0.02236347 0.010426669 0.0011128861
000180 1a 4c d3 3b 6a 1d 38 3c 1c 92 47 3c f5 75 9b 3c
       0.006448281 0.011237482 0.012180831 0.018977145
000190 4d 54 72 ba e8 58 16 3c 68 d1 2f 3c 65 27 08 3c
       -0.0009244129 0.00917647 0.010731079 0.008310174
0001a0 55 63 91 3a 2c 87 aa bc 03 8d d4 37 96 66 a1 3c
       0.0011092225 -0.020816408 2.5338033e-05 0.019702237
0001b0 9b 48 65 3c 0a b3 55 3c 7d 67 01 bc 4a 9d 59 bc
       0.013994361 0.0130431745 -0.007898209 -0.01328213
0001c0 00 42 a6 3c 6d 43 34 bc ba 2d 3a bc 92 80 57 bc
       0.020295143 -0.011002404 -0.011363441 -0.013153212
0001d0 02 70 e5 bb 89 38 af bb 31 77 64 ba a4 13 6d 3b
       -0.0070018778 -0.0053473157 -0.00087152707 0.0036175037
0001e0 6e fa ce 39 94 37 8d 3c a6 d6 ed 3a 4a 44 9c bc
       0.00039477966 0.017238416 0.0018145635 -0.019075532
0001f0 2c 13 62 bc c3 c6 0c bc a3 5a 8f bc 6f af 50 bc
       -0.013798516 -0.00859231 -0.017499274 -0.012737139
000200 1d f5 2c 3c 41 53 89 3c b3 26 9f 3c 82 83 16 bc
       0.010556486 0.016763331 0.019427633 -0.009186627
000210 c8 bb 4c bc 6a 5f 7c bb c7 d1 96 3c 95 94 88 bc
       -0.012495942 -0.003850902 0.018410577 -0.016672412
000220 3b a7 9e bc d3 0c 77 3b c1 3e a3 bb 16 b6 59 bc
       -0.019366851 0.0037696853 -0.004981846 -0.013288042
000230 54 2a 69 3c c3 ff 77 bc c9 73 b5 3c 08 33 a6 bc
       0.014231283 -0.015136662 0.022149937 -0.020288005
000240 c3 93 f1 3b 1e 24 64 3c 59 95 71 3c a5 f0 1b 3c
       0.007372351 0.013924627 0.01474508 0.009517823
000250 9e 07 9d bc 60 7a 85 3c 00 5f 91 bb 03 cc 91 3c
       -0.019168671 0.016293705 -0.0044363737 0.017797476
000260 a7 89 6c 3b 2a 1c 4b bc c6 e7 20 3b 61 1e 57 bc
       0.003609279 -0.012396852 0.002455221 -0.0131298015
000270 04 10 d2 bb 2a 69 4f bc be 34 5f bc c4 66 36 3b
       -0.0064106006 -0.01265935 -0.013623415 0.002783225
000280 e2 a6 6a 3c 63 83 56 3b 3a e0 69 3c b0 5b a2 3c
       0.0143220145 0.0032732121 0.014274651 0.01981911
000290 5a 49 e2 ba db bd 18 bc 30 a8 1f bc af 37 6c bc
       -0.0017264292 -0.009322609 -0.009744689 -0.014417573
0002a0 f1 d8 3b ba 48 60 d7 3b e5 9e 88 bb ac 7c 9e bc
       -0.00071658107 0.006572757 -0.0041693323 -0.019346558
0002b0 6a 66 7b bc 92 f3 ab bc 01 6d 55 bc 30 51 4e 3c
       -0.015344242 -0.020990167 -0.013026477 0.012592599
0002c0 57 38 e0 bb eb 5f 48 3b a2 3f e8 bb 2b ab 1b 3c
       -0.0068426537 0.003057475 -0.0070876637 0.009501259
0002d0 33 90 9e bb 1d 23 10 3c f4 09 b6 bc bf ca 9b 3c
       -0.004838967 0.008797434 -0.022221543 0.019017575
0002e0 e3 a6 4b bc 63 89 d8 3a 4a 9b ff 3b 0b b9 49 3c
       -0.012429926 0.0016520437 0.0078004943 0.012312184
0002f0 27 03 9e 3b 00 7f 93 bc f6 21 2d 3c 34 3c 56 3c
       0.004822153 -0.018004894 0.010567179 0.013075877
000300 d2 db 83 bc 38 8e 88 bc fb 63 d4 bb ea a8 a5 3c
       -0.01609603 -0.016669378 -0.006481645 0.020222146
000310 80 a8 0e 3c 84 fd a6 3c df d4 68 bb a3 4b 8e 3c
       0.008707166 0.020384558 -0.0035527272 0.01737005
000320 05 2f 87 3c 36 d6 55 3c 2b 5d dc 3b d3 c1 4f bc
       0.016501913 0.01305156 0.0067249737 -0.012680489
000330 f9 84 30 bc 0f 2e 39 bc d3 71 bd bb 49 61 45 bc
       -0.010773891 -0.011302485 -0.005781391 -0.01204712
000340 fd 1a 95 bc 68 1c 60 3c 66 eb 9a 3c 3a 0d 99 bc
       -0.018201346 0.013678648 0.018911075 -0.018683065
000350 c8 1a e0 bb b6 bf b7 3c 06 36 d4 3a e8 c4 d3 bb
       -0.00683913 0.022430282 0.0016190417 -0.006462682
000360 19 3f 99 3c 62 4c c9 bb 73 d7 0d 3c 94 5a e7 3a
       0.018706845 -0.0061431387 0.008657324 0.0017650896
000370 16 16 80 3c 4a 1b 20 3a c8 1a 05 bc 27 fd 5e bc
       0.015635531 0.0006107582 -0.008124061 -0.013610161
000380 8b d7 96 3c 78 d7 01 3c 60 b2 30 3a 52 fd 87 3b
       0.018413326 0.007924907 0.0006740447 0.004150071
000390 c4 87 2c bb 1b 70 e6 39 8b 5b 58 bc 97 fb 0c bc
       -0.002632604 0.00043952544 -0.013205419 -0.008604906
0003a0 a3 4f 8a 3c a0 a2 99 3c fd 3a a8 3c bc aa 8b 3c
       0.016883677 0.018754303 0.02053594 0.017049186
0003b0 d6 77 5c bb 26 5d 51 3c 98 87 8e 3c cc 50 a5 bc
       -0.0033640764 0.012778556 0.01739864 -0.020180129
0003c0 79 b7 2d bc 5c 74 70 bc 23 b3 68 3b 8a 9a 2a bc
       -0.010602825 -0.01467618 0.0035507164 -0.010412822
0003d0 2e 9c 97 bc ce c5 80 3c 14 ab 30 3a a7 2b 4b 3c
       -0.01850709 0.01571932 0.000673936 0.012400544
0003e0 27 bf 1b 3b c3 40 60 bc 60 61 84 bb e3 f3 12 3c
       0.0023765059 -0.013687315 -0.0040399283 0.00896928
0003f0 a3 b3 d7 bb 28 1d 13 bc 67 9e 25 bb 6d a9 6d bc
       -0.0065826937 -0.008979119 -0.0025271417 -0.014505726

classifier.0.bias f4 [120]
000000 07 6a 08 bc 5e 47 61 3b 89 05 df ba 48 77 57 bc
       -0.00832606 0.0034374814 -0.0017015199 -0.013150997
000010 93 01 02 bc f0 98 2f bb 59 31 5c 3c e3 61 0a 3d
       -0.007934946 -0.0026794039 0.0134395 0.03378476
000020 0b f9 63 3c ec ea 0f bc 55 7f 6f 3b 46 02 e7 3b
       0.013914357 -0.008784037 0.0036544402 0.0070498316
000030 fb 0c 9b 3c a3 e2 97 3c 4b fc 87 bc 15 af 11 b9
       0.018927088 0.018540686 -0.016599795 -0.000138935
000040 b5 de 91 3c 19 85 56 3c 7b 92 c4 3c f4 44 8d bb
       0.01780639 0.013093256 0.023995629 -0.0043111984
000050 5d 16 16 3c 05 5f 36 bc c9 30 d7 3a 97 b3 7a bb
       0.009160605 -0.011131053 0.0016417737 -0.0038254017
000060 ba 77 7c 3c f1 44 f1 ba 5f 80 da 3c 77 71 09 b7
       0.015409404 -0.0018407387 0.02667254 -8.192254e-06
000070 05 39 7b bc 70 39 98 3c b8 97 6b 3c 0d 4f a3 3c
       -0.015333419 0.018582076 0.014379434 0.019935155
000080 e2 fe e5 3b e4 30 84 bc 23 b5 17 3b e5 b5 60 3b
       0.00701891 -0.016136594 0.0023148737 0.0034288105
000090 c8 58 6c 3c e4 51 23 bc 8e 07 d4 3b fa 27 ac bc
       0.014425464 -0.009968255 0.006470627 -0.021015156
0000a0 83 a6 41 3d bf c6 be 3a f5 6a 49 3c b3 d2 7f bc
       0.04727794 0.001455508 0.012293567 -0.015614199
0000b0 8d 71 92 3c 3a 8a 5c bc b5 ac 78 3c 36 06 cd 3c
       0.01787641 -0.01346069 0.015177895 0.025027376
0000c0 bf 36 2e 3c cd 8d 12 3c 7f 16 f6 bb 8a 23 ae 3c
       0.01063317 0.008944941 -0.007510006 0.02125718
0000d0 2a ed 57 bc 95 a4 9e 3b eb 35 b8 ba 0c 5e d7 3b
       -0.013179103 0.004841397 -0.0014054155 0.0065724906
0000e0 57 e4 3e bc c5 bf d9 3c aa b8 2c 3b 3a 79 2d bc
       -0.01165112 0.0265807 0.0026355186 -0.010587985
0000f0 1e 19 ee 3b a5 c1 13 bc 9b f6 04 3c 78 0e 28 3c
       0.007266178 -0.009018336 0.008115436 0.010257356
000100 bc 0c 83 3c 47 38 4e bc 1c 41 91 3c e2 4f 89 bc
       0.015997283 -0.01258666 0.017731242 -0.016761724
000110 c3 18 29 3c 1d 9e a3 bc 7f e4 c0 3c b6 6d 68 3c
       0.010320845 -0.019972855 0.023546455 0.014186313
000120 32 6b 20 bc 70 9d 97 3c 8c 67 1a 3d 6c 19 5c 3c
       -0.009791182 0.01850769 0.037696406 0.013433795
000130 a8 43 92 3c 44 3e 72 bc 47 c4 24 bc 9c b7 91 bc
       0.017854527 -0.014785353 -0.010056562 -0.017787747
000140 06 5c d4 3b 39 66 0d ba ca d1 ac ba 02 ba a7 bc
       0.0064806966 -0.00053939555 -0.0013185081 -0.020474438
000150 1b a4 6b 3c 85 90 56 bc 9d 88 3e 3b 21 b2 3a bc
       0.0143823875 -0.01309598 0.0029073127 -0.011395008
000160 5e 05 fb bb 49 f2 f9 bb ac f4 76 3c 64 2b 81 bb
       -0.007660552 -0.0076277596 0.015072983 -0.00394194
000170 67 f5 b7 3a f7 4d af bc 2f 7e 29 3c 13 97 9e bc
       0.0014034928 -0.021399481 0.010345026 -0.019359147
000180 53 d5 b9 3c ef ea a8 3c 6e d5 38 3b a1 da af bc
       0.022684729 0.020619838 0.0028203386 -0.021466555
000190 a6 ab 1e 3c 2a 4f 40 3b 70 c3 6c bc be f9 8e 3c
       0.009684479 0.002934406 -0.014450893 0.01745307
0001a0 d7 22 91 3c 35 24 c4 3c 8b 6d ea bb 1a e3 a9 3c
       0.017716808 0.023943046 -0.007154172 0.020738173
0001b0 4c 82 c5 3b c9 a5 93 3c 69 fe e7 bb 3d 8f 17 3d
       0.0060274955 0.018023388 -0.0070798886 0.037001837
0001c0 7c d9 33 3c fb 3a ed 3c b4 55 0f 3b 77 07 5c bc
       0.010977145 0.028958788 0.0021871151 -0.013429514
0001d0 6c d1 04 3a 8f 77 87 bc 8e 22 d7 bb 10 d6 67 3c
       0.00050666067 -0.016536502 -0.0065653985 0.014150158

classifier.2.weight f4 [84, 120]
000000 25 86 18 bc c3 1b 5e bb 2e 48 85 3d 85 33 0f bd
       -0.009309326 -0.003389106 0.06507908 -0.034961242
000010 0e c5 3a bd 91 81 db bc ec 56 94 3b 0c e2 a4 3c
       -0.045598082 -0.02679518 0.0045269635 0.020127319
000020 59 f4 08 bd 24 19 66 3d 0e f2 65 3c 8d 04 72 3d
       -0.033436153 0.05617632 0.014034761 0.05908637
000030 1f 87 dc bc af 21 65 bc 8b e5 8e bd 63 ab 80 3d
       -0.0269199 -0.013985082 -0.069773756 0.062826894
000040 a9 b8 fb 3c f6 c1 9b bc 83 4f 81 bd 04 f8 63 3d
       0.030727701 -0.019013386 -0.06313994 0.055656448
000050 ce 81 45 bc 5b ea 6e 3b 9f b8 0e 3d 7c f2 27 bd
       -0.012054874 0.0036455605 0.034844037 -0.041002735
000060 97 60 58 3d c5 40 26 bd 8f 76 e2 3c f9 8b 68 39
       0.05282649 -0.040589113 0.027644424 0.00022177388
000070 fe 9a 27 3d 98 91 8c bc ba 43 2b bd ac 07 dd 3c
       0.040919296 -0.017159268 -0.041812636 0.026981197
000080 29 e6 d3 bc 55 fb 41 bc 8b cb 0c bd 6f 6f 34 bd
       -0.025866585 -0.011839707 -0.0343738 -0.044051584
000090 d9 87 12 3d 6b fa 8a bd 88 42 0b 3d 46 69 41 bd
       0.035774086 -0.06786045 0.033998996 -0.047219537
0000a0 fd d8 56 36 af 48 94 bd 49 27 3e bd 30 6d 66 3d
       3.2014789e-06 -0.07240426 -0.046424184 0.056256473
0000b0 8f 0f 89 3d 44 61 65 bc 8e 62 53 bd 77 91 cc 3c
       0.06692421 -0.014000241 -0.05160766 0.024971707
0000c0 e2 d6 eb bc b4 65 88 bd df 2c 93 3a b8 e3 07 bd
       -0.028788988 -0.06660023 0.0011228583 -0.033176154
0000d0 98 59 b3 bc 40 bc f2 bc 6f 57 33 3d 54 1d 27 bc
       -0.021893308 -0.02963078 0.043784555 -0.010199863
0000e0 42 67 6d 3c 77 70 6a bd cc 44 22 3d 5a 8a 67 3d
       0.014489951 -0.05723616 0.03961639 0.056528427
0000f0 81 c6 08 3d d2 bb 3f 3d db 41 56 bd e8 7e b6 bb
       0.033392433 0.04680998 -0.0523089 -0.0055693276
000100 c5 ae 86 bd e5 a6 46 3c 5e 53 06 bd b6 fc b5 bc
       -0.065763034 0.012124752 -0.03279435 -0.022215229
000110 93 df 16 bd b6 9c 5f 3c 7e 28 22 bd fc 12 6c bd
       -0.03683431 0.013648203 -0.039589398 -0.057635292
000120 b6 81 14 3c 84 f0 d2 3b 86 84 6b 3d fa 83 72 bd
       0.009064129 0.006437363 0.05749943 -0.059207894
000130 f6 97 fb bc 02 1e 1e bd d4 d3 13 3c 4a 96 d1 3c
       -0.030712109 -0.038602836 0.009022672 0.025584359
000140 16 75 ec bc b3 92 69 3d 81 a7 44 3d 46 82 45 3c
       -0.028864425 0.05702467 0.048011307 0.012054985
000150 d4 d1 ee bb c8 27 22 3d 62 50 3a bc 08 32 73 bc
       -0.007288197 0.03958872 -0.011371704 -0.014843471
000160 37 1b 82 bd 2a a2 8d 3d ac ed 5e 3d 78 d8 ca 3c
       -0.06352847 0.06915696 0.05442588 0.024761423
000170 af 2f 61 3d 15 11 2e bc 83 5f e6 3c e5 d5 ce bc
       0.054977115 -0.01062419 0.028121715 -0.025248477
000180 0f f9 45 bd 17 fd 3f 3d f1 07 99 3c f2 17 55 bd
       -0.048333224 0.046872225 0.018680545 -0.05202479
000190 bf 2d 3e bd 86 54 63 bd 1e be 9f 3c 74 80 65 bd
       -0.046430346 -0.05550053 0.019499835 -0.056030706
0001a0 71 db 5e 3d 70 e4 37 bc 2d fd cb 3c 0a 80 95 3d
       0.054408494 -0.011223897 0.024900997 0.07299812
0001b0 fa 7d 0c bd 67 4d 75 bc f8 86 8b 3d 00 d0 2b bd
       -0.034299828 -0.014972067 0.068128526 -0.04194641
0001c0 c0 bf 1e 3d 81 8a f8 bc 64 31 04 3c f0 f3 44 3d
       0.038757086 -0.030339481 0.008068416 0.0480842
0001d0 0a 00 6d 3c 1c fe 94 bd e5 7c 7c 3d f8 8c 58 bd
       0.014465341 -0.0727503 0.061642546 -0.052868813
0001e0 12 50 54 3d 3f 1b 9f 3d d6 0c 37 bd 5a 43 e0 3c
       0.051834174 0.07768869 -0.044689976 0.027375866
0001f0 b9 fe 0e 3d ee 27 1b 3d 5b 9c 96 3b 7b 36 9d bd
       0.03491089 0.037879877 0.0045962757 -0.07676407
000200 fb 0c 1d 3d dd 32 44 bd 7a 5d 02 3e e7 05 58 3d
       0.038342457 -0.04790007 0.12730971 0.052740004
000210 c8 db f7 3c 4b 16 06 bd 5c 65 de bc 1d 11 47 3d
       0.030256167 -0.032736104 -0.027147941 0.048600305
000220 58 cc b8 bd 10 b5 71 bd 74 ca 67 3d 42 be 2f bd
       -0.090233505 -0.059010565 0.05658956 -0.042906053
000230 3a e4 ee bc 5c 45 82 3d c9 c2 1d bd 61 22 a6 3c
       -0.029161561 0.063608855 -0.03851584 0.020280065
000240 8b 66 95 3d e9 6f 37 bd 98 65 3b bd 92 b4 28 bd
       0.07294949 -0.04478446 -0.045751184 -0.04118783
000250 be 29 56 bd 2d 0e 7a bd 7a 46 5e 3b d5 22 69 bd
       -0.052285902 -0.061048675 0.003391652 -0.056917984
000260 88 32 6d bc 0a 57 72 bd c4 e7 f5 3c ab 0c dd 3c
       -0.01447738 -0.05916504 0.030017741 0.02698358
000270 d8 c5 d1 3c 3f 2e 85 3c 87 5e 4d bc 80 3a d5 bc
       0.025607035 0.016257403 -0.012534744 -0.026028872
000280 11 d9 c3 bc 82 7c 35 bd 43 3b 02 3d e6 cc 8b bd
       -0.023907216 -0.044308193 0.031794798 -0.06826191
000290 12 f5 45 3d e4 47 b2 bc 7a a8 02 3e fa fb a2 bd
       0.04832942 -0.021762796 0.12759581 -0.07958217
0002a0 c7 c6 56 3d de c8 78 3d ac 11 ec 3d 50 44 2b bd
       0.052435663 0.060738437 0.11526808 -0.041813195
0002b0 a8 e9 82 3d 00 b4 4f 3c 2a f3 30 3d c1 96 43 3d
       0.06392223 0.012677193 0.04320065 0.047751192
0002c0 13 a5 d9 3b f9 77 c2 3c da dd 87 3d 61 f1 af bc
       0.006641993 0.023738848 0.06634112 -0.021477403
0002d0 8c 65 72 bc b6 58 fc bc d8 1a 26 3d 5c af 92 3c
       -0.0147947185 -0.03080402 0.040552944 0.017905883
0002e0 c8 b8 26 bd b5 ed 9e bd 5c e1 3f bc 44 09 ac 3d
       -0.040703565 -0.07760183 -0.011711445 0.08400205
0002f0 f5 68 41 bc bf 00 87 bd af a4 4d bd e7 dc 80 3d
       -0.011804809 -0.06591939 -0.050205883 0.06292134
000300 df d7 aa bd a6 a3 d9 bc 8f 01 02 3d 7f 80 79 3b
       -0.083419554 -0.026567291 0.031739768 0.0038070974
000310 e3 6c 02 bc 18 50 7f bd 2d c2 0d bd cc ab 6d 3d
       -0.007960531 -0.062332243 -0.03460901 0.058025166
000320 07 08 90 bd a3 f9 30 bd 31 36 f0 3d 20 df 09 3d
       -0.07032781 -0.043206822 0.11729086 0.033660054
000330 9e e0 6f bd e5 e6 03 bd 9f fe 2f bd 27 4d 8b bc
       -0.05856382 -0.03220262 -0.042967435 -0.017004563
000340 09 91 97 bd c7 db 57 3d b8 92 6d bd 5e c6 2b bd
       -0.0740071 0.05269983 -0.05800125 -0.041937225
000350 5e 22 0d 3d cf f5 08 3d 47 38 86 bd 03 2c b6 3d
       0.034456603 0.033437546 -0.06553703 0.08895113
000360 a8 de 87 3d 14 81 d1 3d 42 8f 56 3d 09 39 17 3d
       0.06634265 0.10229698 0.052382715 0.036919627
000370 55 c9 57 3d 81 01 21 3d dc 94 02 bd a8 d8 20 3b
       0.05268224 0.039308075 -0.031880245 0.00245432
000380 0c 7f 96 3d cb cc a1 3d fb 9b 1a 3d b1 dd 7f bd
       0.07348451 0.07900389 0.03774641 -0.06246728
000390 82 47 a2 bd c6 d3 3c bd 17 1f 56 bd 9c 45 c6 3c
       -0.07923795 -0.0461004 -0.052275743 0.024203114
0003a0 e3 5c b2 bd 82 34 0d bc f8 4d f2 3d 34 99 ce 3d
       -0.08709123 -0.008618476 0.118312776 0.10087815
0003b0 7c 22 e0 bc 57 11 4c bb 72 ee 3f 3d 5c f1 f8 3d
       -0.027360193 -0.0031138265 0.04685826 0.12155411
0003c0 1c ef 3b 3d 0e 7f bb 3d 80 5d ad bc ea 37 88 3d
       0.04588233 0.09155093 -0.021162748 0.0665129
0003d0 fc 4b 20 3d 1c ce 86 bd 5f 03 6d bc f3 5e 57 bc
       0.039134964 -0.06582281 -0.014466136 -0.013145196
0003e0 6e 0e 96 3d a4 49 b7 3b 67 fe 48 bd d4 a1 8d 3d
       0.07326971 0.0055934954 -0.049070742 0.06915632
0003f0 ea d0 9a 3b 96 7a 30 bd a3 c2 8a 3c c9 f8 6a 3d
       0.0047246115 -0.043085657 0.016938513 0.057366166

classifier.2.bias f4 [84]
000000 b2 4a e1 bc bc c9 80 3c 19 b5 01 3d 56 72 9a bc
       -0.027501438 0.015721194 0.03166685 -0.018853348
000010 71 b4 7c 3d 23 ce 87 3c 7d 6c 97 bd 96 96 a8 bc
       0.06169552 0.016577786 -0.07393739 -0.020579617
000020 8e fa 84 bd df 71 8d bc d6 bd 61 bc 74 85 98 3d
       -0.06493102 -0.017266212 -0.013778171 0.07447329
000030 10 5f cd 3d ac ff 35 3d 06 a5 6f bd 2d 93 1b bc
       0.10027897 0.04443328 -0.058506988 -0.009495539
000040 b2 0b 85 bd 6d 23 16 bd cd 5c 79 3b e3 b1 1b 3d
       -0.06496371 -0.03665488 0.0038049698 0.038011443
000050 7d 89 1b 3d fb 63 50 3a 61 2e 4d 3d f8 22 a3 bc
       0.037972916 0.00079494686 0.05009306 -0.019914135
000060 92 6e df 3c 51 a2 84 bd 28 c0 f0 3c ab 6b 8e bd
       0.027274404 -0.06476272 0.029388502 -0.0695413
000070 a5 13 85 bc 74 2d e8 bc f6 ec 5e bd 48 9a 81 3d
       -0.016244719 -0.028341986 -0.054425202 0.06328255
000080 75 1a 76 bd da 62 34 3b 0d 7f be 3c 51 c6 df 3c
       -0.060083825 0.002752474 0.023253942 0.027316244
000090 36 db 91 3c 16 af 7f 3d f8 a2 ec 3c 7f a3 94 3a
       0.017804723 0.062422834 0.028886303 0.001134023
0000a0 c9 56 b7 3d 56 8b e2 bc d0 5a da 3d 09 e3 1f 3d
       0.089521 -0.027654331 0.10661852 0.039034877
0000b0 99 ed 8b 3d 8b a8 4d 3d 5b 74 84 3d 43 ae 4c bd
       0.068324275 0.050209563 0.064675055 -0.049970876
0000c0 82 ba a3 bc 61 c2 83 bb 6c dd 28 bd fd 63 c4 3c
       -0.019986395 -0.0040209745 -0.04122679 0.02397346
0000d0 e2 3b 12 bc 7a e7 3c 3d f7 cf 66 3d 23 af 96 39
       -0.00892541 0.04611919 0.056350674 0.00028740717
0000e0 0d b9 40 bd 45 11 6b 3d 1a 3c c5 bb d9 18 69 bd
       -0.04705148 0.057389516 -0.0060191276 -0.056908462
0000f0 d8 90 3f bc e9 90 24 3d 1a 7b 22 3d 27 1f ec bc
       -0.011692248 0.04017726 0.03966818 -0.028823448
000100 9f 3d 7c 3d 11 e3 66 bd 50 b0 be bc 68 68 e0 3c
       0.061582204 -0.05636889 -0.023277432 0.027393535
000110 f6 b5 a8 3c 80 85 8c bd 77 d9 27 bd 6f 30 17 bd
       0.020594578 -0.068614006 -0.040978875 -0.036911424
000120 f1 e3 80 3c 44 fc 75 bd 59 d6 e5 3b ab a4 b5 3a
       0.015733691 -0.060055032 0.0070140776 0.0013858279
000130 06 58 d6 3c 83 dc 8b 3d 56 1c e9 3c 39 09 61 3d
       0.02616502 0.06829169 0.028455894 0.054940436
000140 ff 56 80 ba 20 22 86 3d 84 8c 5e bc 40 8c 58 bd
       -0.0009791552 0.065494776 -0.013583306 -0.052868128

classifier.4.weight f4 [13, 84]
000000 e6 cf 9e 3d 00 9a f6 3d fd 5c 13 be 36 20 f4 bc
       0.07754497 0.12041092 -0.14390941 -0.029800516
000010 98 a1 4e bd 87 fc fe 3d ed b5 e1 bd dc c4 a0 bb
       -0.050447077 0.124505095 -0.11021028 -0.00490628
000020 5c 55 52 bd 03 34 bc 3d 7f 44 7e bd 9d b8 23 be
       -0.051350936 0.09189608 -0.06207704 -0.15988393
000030 7a 22 d9 bd e1 5d 51 3d d3 b3 97 bd 0d 0c 08 be
       -0.10602279 0.05111492 -0.074073456 -0.13285847
000040 90 39 0d bd 32 3c 46 bc be ce 3f bd 97 f5 71 bd
       -0.034478724 -0.012099313 -0.046828024 -0.059072103
000050 4a 6e e7 bc 6a 09 56 3d 2f 26 a3 3d cf 36 0c 3e
       -0.028250832 0.05225507 0.07966267 0.13692783
000060 86 a0 86 3d e3 4b d9 bc 1a 88 11 be d9 7e 5c 3c
       0.06573586 -0.026525443 -0.14212075 0.013457977
000070 66 f6 45 3e 86 83 45 3e 73 bc f8 bb 1d 96 45 be
       0.19332275 0.19288453 -0.0075908243 -0.19295545
000080 5e e7 03 3e 1c d0 83 bd a1 16 bc 3d de 91 e2 3c
       0.12881228 -0.06436178 0.091840036 0.027657446
000090 f0 51 45 bd 99 95 61 3d ee 39 ef bc 13 a4 03 be
       -0.048173845 0.055074308 -0.029202428 -0.12855558
0000a0 9b bc e9 3a c4 31 28 3d 22 cc d6 bd d4 35 2f be
       0.0017832698 0.041063085 -0.10488154 -0.17110378
0000b0 0d e5 f9 bc 68 36 c0 bc 0f 37 f1 bb dd e1 10 3c
       -0.030504728 -0.023463443 -0.0073613 0.0088429125
0000c0 cd 57 66 bd d9 38 bb 3d 07 13 e1 3c 2a 18 f9 3c
       -0.056236077 0.09141702 0.027474893 0.03040703
0000d0 ad 7e b1 3d dc 57 a9 bd 17 7f 51 3e 2e 6b a1 bd
       0.086667396 -0.08268711 0.20458637 -0.07881771
0000e0 db 62 9e bc 08 91 da bd 24 5f 36 bc 3e 19 b3 bd
       -0.019334247 -0.10672194 -0.011131082 -0.08745049
0000f0 ea e0 0c bd 4e 6c 24 3d 24 8a c8 ba db 4b d9 3d
       -0.034394182 0.04014235 -0.0015299958 0.106101714
000100 3f 8b 31 3e 37 69 b8 bb 56 3e 87 bc 64 20 a9 3d
       0.17338274 -0.005627777 -0.016509216 0.08258131
000110 7f 18 b7 bd 9b 8a 9a bc 15 0b 57 bd 76 12 86 bd
       -0.08940219 -0.01886492 -0.052500803 -0.0654649
000120 98 07 b5 bd 90 1b f4 bd d2 81 93 bd bb 16 51 bd
       -0.08839339 -0.1191932 -0.07202496 -0.051047068
000130 c7 54 2f 3d 3c 15 29 3e 22 ea b6 bd 87 6b 04 3d
       0.04280546 0.16512007 -0.08931376 0.03232911
000140 d1 5e 97 3d c1 8e c3 bd 0d ee dc 3d d3 59 3e bd
       0.07391132 -0.095487125 0.10787592 -0.04647238
000150 13 94 35 3d ab 8e 79 ba 32 cd f6 3d a2 3e 99 bd
       0.044330668 -0.00095198554 0.12050857 -0.074826494
000160 ce 41 ef 3c 86 23 83 bc d4 c7 a7 bd 31 09 35 bd
       0.029206183 -0.01600815 -0.08192411 -0.04419822
000170 05 0a 99 3d 50 a6 75 3d 30 30 f3 bc 24 1a 9f bd
       0.07472614 0.05997306 -0.029686064 -0.07768658
000180 1b 67 0e be ae 74 10 be 78 be ab bd c3 70 fc bc
       -0.13906519 -0.1410701 -0.083859384 -0.030815488
000190 1c 7a 0a bd 2c d2 f0 bd c1 f4 54 3d 39 87 95 bd
       -0.03380786 -0.11758837 0.051991228 -0.07301182
0001a0 f1 21 23 bd d5 e3 bb 3b af ca 01 3c ba 15 9a 3d
       -0.03982729 0.005733947 0.007921859 0.07523675
0001b0 9c c9 03 3d 89 b0 02 3e 99 52 db 3c e7 8f e6 3d
       0.03217469 0.12762655 0.026772784 0.11257916
0001c0 8a 4b d3 3d 32 05 e4 3d 3d 3f 7b 3d f2 82 03 3e
       0.10317142 0.111338034 0.061339606 0.1284292
0001d0 26 fc 81 3d 97 3e 1e bc aa 88 a9 bd 95 74 e8 3d
       0.063469216 -0.009658477 -0.0827802 0.11350361
0001e0 f2 08 25 bd ed 83 ee 3d fc 1c 21 be 23 d1 09 be
       -0.040291734 0.116462566 -0.15733713 -0.13458686
0001f0 e9 2c a3 3c 73 02 98 bd 50 01 12 be 91 6d fb bb
       0.019918876 -0.07422342 -0.14258313 -0.0076729734
000200 b7 78 ee 3a 0e 5b 86 bd 67 c3 7e bc 63 06 11 bd
       0.0018193935 -0.06560336 -0.015549517 -0.03540648
000210 25 d3 a5 bd b0 94 95 bc f0 f3 83 ba 6d db e5 3d
       -0.08096913 -0.018259376 -0.0010067206 0.11223493
000220 68 cf 28 be d4 32 df bd 15 55 3e 3e 8e de 68 3d
       -0.16485369 -0.108983666 0.18587144 0.05685287
000230 d3 66 8f bc b8 7d f3 bd 4c 24 df 3d df dc f1 3d
       -0.017505085 -0.11889213 0.10895595 0.11809706
000240 a3 9f bc bd 18 5d 30 bc 34 04 06 3d d5 00 e4 bd
       -0.09210136 -0.010764383 0.032718852 -0.11132971
000250 31 1b cd 3d c7 84 c9 bd 32 70 ff 3b 47 b1 a7 bc
       0.10014952 -0.098397784 0.007795357 -0.020470275
000260 15 6b 21 bd 92 b5 50 bd 60 0c 23 3d f0 94 26 bd
       -0.039408762 -0.05095441 0.039806724 -0.04066938
000270 1a e5 90 3c 33 35 4e 3d 4b 10 c1 3c bd 25 d2 3d
       0.01768737 0.050343703 0.02356734 0.10261104
000280 38 db 32 bc e2 de d2 bb e0 94 01 bd a0 a8 31 3d
       -0.010916524 -0.006435261 -0.03163612 0.043373704
000290 11 42 7e bc 89 9e 14 be 2b b4 17 bc de 5e 86 bd
       -0.015518681 -0.14513601 -0.009259264 -0.06561063
0002a0 99 8e 3b bc 0e 57 41 3e d3 f2 b5 bd 8b d9 52 bc
       -0.011447572 0.18880865 -0.08884206 -0.012869249
0002b0 8e 90 2e 3d a1 d1 f1 bc 9e 10 06 3e a2 a2 51 bd
       0.042618327 -0.029518904 0.13092276 -0.05118049
0002c0 e7 4d 40 3e 2f 7a 6b bd 9e 9c 49 bd ee 79 dd 3d
       0.18779717 -0.05748957 -0.049221627 0.10814272
0002d0 50 e0 ed b9 cf b7 5e 3e 3c 2e 7b 3d a4 26 ab 3d
       -0.00045371288 0.21749805 0.06132339 0.083569795
0002e0 4d d0 be bd 2b 10 df bc 27 c8 1e be 8b f4 55 bb
       -0.09317074 -0.02722939 -0.1550604 -0.003264698
0002f0 87 e0 08 3e c7 b9 33 bc ec 72 2d bd 3d 7b 20 bc
       0.133669 -0.010969586 -0.042345926 -0.009795007
000300 83 4e ad 3c 03 4e 3d bd e3 f7 94 bd 53 f4 99 3c
       0.021155601 -0.046216976 -0.07273843 0.01879326
000310 1f 55 39 bc 72 ab 2a 3e a9 8f 33 3d 9c 4e 09 bd
       -0.011311798 0.16666964 0.043838177 -0.033522233
000320 99 40 dd bd 11 96 93 bd de b8 50 3b ea 0a e2 bd
       -0.10803337 -0.07206357 0.003184847 -0.11037238
000330 6b ed 12 be b9 6b 85 bd 7f 5c b5 bd b7 f2 1a bd
       -0.1434838 -0.06514687 -0.08855533 -0.037829127
000340 b0 50 41 bd 75 ca 7a bd c5 d3 32 3d 3c 58 b5 bd
       -0.04719609 -0.061228234 0.04365899 -0.0885472
000350 28 e0 da bd c5 b6 f5 bc 27 fa 8c 3d ae 63 b7 bc
       -0.10687286 -0.029994378 0.0688365 -0.022386398
000360 0f ff 06 3a f4 d8 42 3d 72 26 f9 ba c3 fd 03 be
       0.0005149701 0.047570184 -0.001900865 -0.12889771
000370 aa 91 bd 3d d6 42 4f 3d 9c d8 4f 3c aa 7f f8 3b
       0.09256299 0.05060085 0.012685921 0.007583578
000380 05 c9 50 3d 69 41 38 3c 84 cd d7 3d 8f 2a ef 3c
       0.050972957 0.011246064 0.10537246 0.029195098
000390 1b 12 9b 3c 52 4a d2 3c 5b da bf bd 01 b0 54 bd
       0.018929532 0.025670204 -0.0936782 -0.051925663
0003a0 6a 85 13 3e 68 c6 4a bd 17 3b b9 3d df 2d 90 bd
       0.14406362 -0.04950562 0.090444736 -0.07039999
0003b0 b8 4a b0 3c 06 ab a4 bd 1d 3e de 3d 52 06 18 bd
       0.021520004 -0.08040433 0.10851691 -0.037115403
0003c0 d5 f7 b9 bd 58 56 cc bd be 54 32 3d af 92 a8 bd
       -0.09080473 -0.09977406 0.043537848 -0.08231103
0003d0 1a e6 31 bd c6 33 99 3d d6 9a 95 3d b3 32 1c be
       -0.043432333 0.07480578 0.07304923 -0.15253715
0003e0 d1 e6 17 3d ac e0 ee bd 5d 35 79 bd 74 3a 1a 3c
       0.037085358 -0.116639465 -0.060841907 0.00941335
0003f0 51 47 04 3d bb 6c 01 3e 2c 2b e0 bd cb 67 bd 3d
       0.032294575 0.12639134 -0.109457344 0.092483126

classifier.4.bias f4 [13]
000000 34 31 f1 3c f5 86 b9 3c 34 24 46 3d 0d 70 7c bd
       0.029442407 0.02264736 0.04837437 -0.061630297
000010 1e 21 9c bd 85 a4 da bd 1c cf 2b bd ae 3b e1 3c
       -0.07623504 -0.10675911 -0.04194556 0.027494278
000020 53 8f b8 bb fb d2 f5 3b f0 d4 a6 bd 3d 23 15 bd
       -0.00563232 0.0075019575 -0.08146083 -0.03641056
000030 42 51 0d 3e
       0.13800529

onnx::Conv_45 f4 [6, 1, 5, 5]
000000 a7 af 2d 3f 7b 52 9d be 22 9d 9d bd 51 05 55 be
       0.6784615 -0.3072699 -0.07695986 -0.2080281
000010 48 a2 12 3f 76 0c 81 bd e6 c5 85 3d ed bf 79 3f
       0.5727887 -0.06301205 0.06531887 0.9755848
000020 da 3a 59 3f eb 18 7a 3e 46 1c ee be f2 95 4d 3f
       0.84855425 0.24423568 -0.46505946 0.80306923
000030 3c 37 3f 3d 1b 48 3b be 4a 7b de 3d 7a 77 ac 3e
       0.046683535 -0.18289225 0.10863359 0.33684903
000040 15 a8 29 bf 2d 14 23 3f e0 89 e5 be 39 0f 9a bf
       -0.662721 0.6370266 -0.44831753 -1.2035896
000050 1b 04 54 3f 2f 34 13 bf 66 3b f4 be f0 58 0b be
       0.82818764 -0.575015 -0.47701567 -0.13608146
000060 b8 cb 8e be 57 cf b0 bd 93 26 12 be a3 74 04 be
       -0.278898 -0.08633297 -0.14272527 -0.12935118
000070 29 2d 4e be 53 30 c1 bc 79 f0 67 bd 77 e0 cd 3d
       -0.20134415 -0.023582613 -0.056625817 0.10052579
000080 91 10 21 be 09 39 6c be 57 9d 2d 3d aa 33 5d be
       -0.15728976 -0.23068632 0.04238638 -0.2160174
000090 73 4c 8c 3c 18 d6 89 bb 3d 7e 8d 3d 34 1c da bd
       0.017126298 -0.00420643 0.06908844 -0.106499106
0000a0 68 a8 03 be e1 82 e7 b9 09 46 6f be 9e e3 78 bd
       -0.1285721 -0.00044157266 -0.2336656 -0.060763948
0000b0 21 ec 9f be 27 ae 96 be a3 58 2f be 92 4f 8c be
       -0.3123484 -0.29429743 -0.17123656 -0.27404457
0000c0 78 0b 83 be ed f2 b2 3d 93 52 2d 3f 0f 87 10 bf
       -0.25594687 0.08737741 0.67704123 -0.56456083
0000d0 10 15 45 be 9c 08 bb 3e cc 2b 0d bf cd f4 c2 be
       -0.19246316 0.36530006 -0.55144954 -0.38077393
0000e0 11 3c 72 3d 6c 19 9c be 4b 23 8f be 1d 51 09 3f
       0.059139315 -0.30488145 -0.27956614 0.53639394
0000f0 18 d5 21 3f 1e 51 e4 be 9f ee 15 bf 71 64 eb be
       0.6321578 -0.44593138 -0.5856723 -0.45975068
000100 ed 10 e4 be ee aa 8d be e6 ac 88 3e d5 6d 39 bf
       -0.44544163 -0.27669472 0.2669441 -0.72433215
000110 74 95 b8 bd 63 a4 3b 3f c6 48 8e 3d 15 10 08 bf
       -0.09012881 0.7329771 0.06947474 -0.5314954
000120 63 1d 0a bf ef 9f 50 3f 0d 0f 1b 3f 41 80 41 bd
       -0.5395109 0.8149404 0.6056984 -0.047241453
000130 a0 14 29 3f 82 3c 1a bf 29 e7 d6 3e 4a 59 11 bf
       0.66047096 -0.6024858 0.41973236 -0.5677687
000140 4c 13 d7 3e 50 39 35 3f a6 3b 00 3e 56 da 7b 3e
       0.4200691 0.70790577 0.12522754 0.24595007
000150 8d d3 34 bf 7d de cd bc ed 3f 16 3f 58 61 19 3f
       -0.706353 -0.025130505 0.58691293 0.5991416
000160 0d 75 45 be cd 4f 5e be 99 4d 81 3e 3e 2f 21 bf
       -0.19282933 -0.21710129 0.25254515 -0.6296271
000170 10 38 c4 bd 1c e9 89 bd 36 3e fd 3e d4 f2 08 bf
       -0.095810056 -0.06733915 0.49461526 -0.53495526
000180 68 3f 81 3e 22 22 1d 3f 45 64 cc 3e eb 69 40 be
       0.25243688 0.6138021 0.3992025 -0.18790404
000190 3b 27 a6 3e cd 29 2a be ea 79 aa bd dd c7 d2 be
       0.32451805 -0.16617508 -0.083240345 -0.4116811
0001a0 e0 ff 16 3f 2d b8 17 bf 19 ee 04 bf fd d6 6c 3e
       0.58984184 -0.59265405 -0.5192581 0.23128887
0001b0 72 22 12 3f 2e 9b 46 be 85 04 25 bf 66 03 0f bf
       0.5708381 -0.19395134 -0.6446002 -0.5586456
0001c0 48 7f 36 3e c1 d9 0f 3f 68 26 25 3f 7b 74 c5 be
       0.17821991 0.5619164 0.6451173 -0.3856543
0001d0 dc 14 71 bd 8a 7c 80 be d7 cb a7 3e 05 ca 0b 3f
       -0.058857784 -0.25095016 0.32772705 0.5460513
0001e0 00 69 1d 3e ab 89 82 3d ac 32 53 3e 2e 0a 01 3f
       0.15372086 0.06373914 0.20624799 0.5040616
0001f0 05 bf f1 be 11 dd b8 bb 46 ea 6a 3e 43 04 c8 b9
       -0.4721605 -0.0056415875 0.2294093 -0.00038150148
000200 24 43 aa be 8d fa 18 3f ef c1 dc 3e 39 b9 45 3f
       -0.3325435 0.5975731 0.4311671 0.7723575
000210 1c 59 46 3f 2d a9 0e 3f 28 2c 21 3f 43 8f d3 3e
       0.7747972 0.5572689 0.62958 0.41320238
000220 16 d9 ef be 79 67 b4 be f4 30 03 bf eb 9d 91 3e
       -0.4684531 -0.35235193 -0.5124657 0.28440794
000230 8c 71 48 bf 30 3d 01 bf 25 4b b3 bc 05 20 0f bf
       -0.7829826 -0.5048399 -0.021886418 -0.5590823
000240 dd 3a dd be f7 02 27 bf 96 73 41 3e 01 2f db be
       -0.43208972 -0.652389 0.18891749 -0.428093
000250 fd 08 40 be dc 04 9a 3d
       -0.18753429 0.07520458

onnx::Conv_46 f4 [6]
000000 8f 85 3c be ed 1e 0d 3f 81 1a 8f 3e 61 e0 c8 be
       -0.18410324 0.55125314 0.27949908 -0.39233688
000010 2f d5 ee bd 10 d7 92 3b
       -0.11661755 0.004481204

onnx::Conv_48 f4 [16, 6, 5, 5]
000000 71 d1 24 3e 41 ff b8 bd 83 eb c5 3d ab b0 3d bd
       0.1609552 -0.09033061 0.09664061 -0.04631106
000010 53 d1 b8 3d 90 16 ed 3c 0e df 84 bd fb 1e 4f 3e
       0.090243004 0.028941423 -0.06487857 0.20226662
000020 2c 57 2c 3e 54 3d 3e 3e 3b 6e 06 be d8 5f 02 3d
       0.16830128 0.18578082 -0.13127987 0.031829685
000030 6d f5 7a bd 6b 1e 8e bd dc 69 f7 bd 4e 7a df bc
       -0.061269213 -0.069393955 -0.12080738 -0.02728
000040 63 77 ad bd c6 1e be bd 55 48 17 bd 51 16 63 bd
       -0.08470037 -0.09283213 -0.036934216 -0.055441204
000050 9e a8 fd 3c de c5 6b 3b 70 ca 04 3d f4 89 d6 3d
       0.030964192 0.0035976092 0.032419622 0.10475531
000060 71 b2 fa bd 0b 8d 0a 3e 9d ad e5 3d b5 bc 02 be
       -0.12241066 0.13530366 0.11214755 -0.12767299
000070 88 a8 a4 bd 7b ae 8b bc 45 82 c4 bc 98 8a cd bd
       -0.08039957 -0.017050972 -0.023987899 -0.100362
000080 ba 88 96 bd 06 14 16 bc 7b 70 94 3c aa 20 e1 bd
       -0.07350297 -0.009160047 0.018120041 -0.10992558
000090 c5 4c f0 bc 6f 66 19 bd 0f bf 91 bd 6c 65 ac bc
       -0.029333482 -0.037451204 -0.0711652 -0.021044455
0000a0 64 3a 93 bd e3 8c 37 bd 58 b0 98 3d 2b b2 bd 3d
       -0.071888715 -0.044812094 0.0745551 0.092624985
0000b0 d5 c9 1c 3e c5 b1 c3 3c 0a 0c a3 bd 1c 2e 18 3e
       0.15311368 0.023888478 -0.07961281 0.1486134
0000c0 06 52 d1 3d 93 c8 6a bd 3b 98 ba bd ad 40 19 bc
       0.10220723 -0.05732019 -0.09111067 -0.009353799
0000d0 7d 7b 98 3d ec 52 01 bd 6f d6 89 3d 84 79 10 3e
       0.074454285 -0.03157322 0.06730353 0.14108855
0000e0 d6 b0 c4 bc 40 f8 ad 3d 94 4e 45 bd ad 68 06 bd
       -0.024010103 0.084946156 -0.04817064 -0.03281467
0000f0 a6 c0 06 3e c6 a6 59 bd c7 1f 5e bd 4d c4 ed bd
       0.13159427 -0.053137563 -0.054229524 -0.11609707
000100 bd 5e 23 3e 5f 90 b4 bd 49 45 c4 3d 83 db a7 bd
       0.15954109 -0.08816599 0.095835276 -0.081961654
000110 cd f8 23 be 88 67 c0 3c c5 66 a4 bd 27 76 93 3d
       -0.16012879 0.023486868 -0.08027414 0.0720027
000120 c3 1c d6 3d 57 9a cb 3d 45 24 10 be 7b 26 9d 3c
       0.104547046 0.09941547 -0.14076336 0.019183388
000130 29 9c 01 3e c4 ed fc 3d c6 82 83 bd 71 0e ca 3d
       0.12657227 0.12350038 -0.064214274 0.09866036
000140 c4 b8 03 be 27 9d b2 3c 1a 88 cb 3d 0c ae e4 3d
       -0.12863451 0.021803452 0.09938069 0.11166009
000150 70 da 66 3d 6f b1 a9 bc fe 44 04 be 18 09 f1 bc
       0.056360662 -0.02071449 -0.12916943 -0.029423282
000160 e1 ef 8a bd e5 d9 8e bc e8 06 22 be 46 36 24 3d
       -0.067840345 -0.017437885 -0.15822947 0.04009082
000170 7d 8d ad bc 84 5e b6 3d fd dc 0d 3e dd a1 c5 bd
       -0.021185631 0.08904746 0.13853832 -0.096500136
000180 aa cf 7e bd 63 fa 8f 3d c1 6c a8 bd bf 41 05 3e
       -0.062209763 0.07030179 -0.08223868 0.13013361
000190 e8 fc 91 3d 1e 8c 84 3d 7c 08 d0 3d 89 95 a9 3c
       0.07128316 0.06472038 0.10157868 0.020701187
0001a0 ee 29 a7 bd ba ba 3c be 42 28 59 bd ff eb eb 3c
       -0.08162294 -0.18430606 -0.05301691 0.028799055
0001b0 cc 9c 22 bd f0 65 b1 3d 49 ce 2e bd 45 11 ae bd
       -0.039700314 0.08662021 -0.042677198 -0.08499388
0001c0 3e 65 c8 bd 1d d0 5d 3c 8e fc d7 3c d5 41 71 3d
       -0.097849354 0.013538388 0.026365545 0.058900673
0001d0 26 81 90 3d cb 8a b3 3c 67 c5 a5 3d 6b a0 b8 3c
       0.07055883 0.021916768 0.08094292 0.02253743
0001e0 4c 2f 11 be b4 35 b9 bd 44 26 a3 bd 69 18 47 bd
       -0.14178199 -0.09043446 -0.07966283 -0.048607264
0001f0 f1 a6 f2 bd 68 9b 33 3e 66 66 6c 3e c5 1d 80 bc
       -0.11848248 0.17539752 0.23085937 -0.015639195
000200 dc 14 c7 3d a1 b2 dc bd ca 99 a3 3e 36 2d 14 3d
       0.097207755 -0.10776258 0.3195327 0.03617593
000210 4b 7f 85 3d f4 05 21 3e 5a 86 d2 3d 6c f6 05 3e
       0.0651842 0.15724927 0.10279532 0.13082284
000220 07 57 e4 bd 61 4a 70 bd 35 19 d9 bd e7 ef 09 3b
       -0.11149412 -0.058664683 -0.10600511 0.0021047534
000230 5c d8 96 bd 94 4b c2 3d 37 34 f0 bd da 91 28 3d
       -0.07365486 0.09487072 -0.11728709 0.04115472
000240 f2 44 b9 3d fa be b7 3d 47 bc 19 be 84 44 8e 3d
       0.090463534 0.08971973 -0.15013228 0.06946662
000250 44 7d 41 bc 4a e5 99 bd 5e 21 10 bc 07 f4 e4 3d
       -0.011809651 -0.075144365 -0.008797018 0.11179357
000260 c5 03 86 bd e7 a6 9e 3c bd c2 08 be 7f b0 60 be
       -0.06543688 0.019366695 -0.13355537 -0.21942328
000270 2f 40 aa 3d 8b 79 cd ba f3 94 55 3d c4 7e 74 bb
       0.08313023 -0.0015676481 0.052144002 -0.0037307004
000280 ec fb b0 bd 1d 4e 51 3c 19 2c 7d 3d d5 16 b4 bc
       -0.086418 0.012774971 0.061809633 -0.021983543
000290 24 ed a9 bd ce 3b a0 bd 1b 00 9c bd 9e 5e 08 3c
       -0.08297184 -0.07823907 -0.076172076 0.00832334
0002a0 bf f4 50 bd 57 0e 18 3e e8 d7 0a be bb 2e bb bd
       -0.051014658 0.1484922 -0.13558924 -0.091397725
0002b0 b1 69 14 3e 9d 0d 21 be e8 8a 2c 3e e9 02 80 3d
       0.14493443 -0.1572785 0.16849864 0.06250555
0002c0 4b a9 17 be 5b 03 08 bb d7 4e a0 bd 4f f1 d9 bd
       -0.14810674 -0.0020753953 -0.078275375 -0.10641729
0002d0 69 32 0d 3e 5e 44 3c 3d 37 65 5a 3e 4c 74 a4 3d
       0.13788761 0.045963638 0.21327673 0.08029994
0002e0 09 ea ba bd 13 de 05 3e 39 14 1a 3e 15 0c 2c 3e
       -0.0912667 0.13072996 0.15046777 0.16801484
0002f0 24 7d 0e bc a9 3f 54 3d 63 e2 28 bd 8b f3 e3 bd
       -0.008696828 0.051818524 -0.041231524 -0.111304365
000300 6e ff 31 3e ce f8 8a bd 29 fc 40 3d b6 eb 4d bd
       0.17382595 -0.06785737 0.04711548 -0.05027362
000310 a8 37 7b 3e a9 00 61 bb 21 6a 03 3d 7c 37 fd 3c
       0.2453295 -0.003433267 0.032083634 0.030910246
000320 cb 80 2f be a4 92 1d be c1 fe c0 3c e5 bd 9e 3d
       -0.17138974 -0.1538797 0.023558976 0.07751063
000330 35 54 1b 3e e2 14 f5 3d 2e 1c 61 bd c9 67 f8 3d
       0.15168841 0.11966874 -0.054958515 0.121291704
000340 b4 72 f6 3d 7c 06 3a 3e 21 c2 b8 bc df 71 35 be
       0.12033597 0.18166536 -0.022553505 -0.1771922
000350 fa 2f ce 3d 09 37 ff bc f8 a1 ac bd 2d 51 37 3d
       0.100677446 -0.031154172 -0.084293306 0.04475515
000360 cb de 95 3d 70 7a 32 bd 28 04 5b 3e 06 bd 0a 3d
       0.07317885 -0.043573797 0.21388304 0.033871673
000370 8c 83 0e be 40 db 33 3e 91 ed 83 bd 91 6c 12 3e
       -0.13917369 0.17564106 -0.064417966 0.14299227
000380 f0 62 6b 3e 4f 09 df bd 22 d4 b9 3c 1c e0 c8 bd
       0.2298696 -0.10890447 0.02268416 -0.098083705
000390 ec 76 07 be 1b e2 ee 3d 0b e0 a9 3d 64 55 b5 3d
       -0.13228959 0.1166422 0.08294686 0.088541776
0003a0 af d3 7e bd 56 3c e0 3c 37 31 42 3d 09 93 3a bc
       -0.062213596 0.02737252 0.047410216 -0.011387595
0003b0 ba bb 29 be e2 1b c1 3d 89 c5 0b 3e ee 49 55 3d
       -0.16575518 0.09429146 0.13649572 0.052072458
0003c0 6e 42 4f be 2b 89 ea bb 7e 41 3f bd 79 a9 41 3e
       -0.20240185 -0.007157465 -0.046693318 0.18912305
0003d0 88 4e 42 bd a2 13 e8 bb 1e 5d 01 bd f3 47 2b be
       -0.047438174 -0.0070824185 -0.031582944 -0.16726665
0003e0 81 e0 8e 3d cd a8 8e 3d e2 0b a5 3d 85 74 a7 bc
       0.069764145 0.0696579 0.08058907 -0.020441303
0003f0 db c9 98 3d f3 2a 00 3e c0 cb da bd 2f 87 c9 bd
       0.07460376 0.12516384 -0.106833935 -0.09840237

onnx::Conv_49 f4 [16]
000000 87 98 f2 bd ba 79 7d be 29 2f ac 3e e0 eb 5b 3f
       -0.118454985 -0.24753466 0.3362973 0.8590679
000010 f8 5b 16 3d aa 41 44 3f c5 c2 8e be bc 0f 8e bf
       0.036708802 0.76662695 -0.27882972 -1.1098552
000020 0f 64 c2 3d 04 f2 2f 3f 24 b5 17 3f 20 69 51 3f
       0.09491741 0.6872866 0.59260774 0.81801033
000030 2e b8 51 3f b8 84 dc be 28 5a 71 bf 00 c6 60 be
       0.8192166 -0.43070006 -0.9427819 -0.21950531
